{"format": "graph-model", "generatedBy": "2.4.1", "convertedBy": "TensorFlow.js Converter v3.4.0", "signature": {"inputs": {"input_19:0": {"name": "input_19:0", "dtype": "DT_FLOAT", "tensorShape": {"dim": [{"size": "-1"}, {"size": "150"}, {"size": "150"}, {"size": "3"}]}}}, "outputs": {"Identity:0": {"name": "Identity:0", "dtype": "DT_FLOAT", "tensorShape": {"dim": [{"size": "-1"}, {"size": "10"}]}}}}, "modelTopology": {"node": [{"name": "StatefulPartitionedCall/model_8/xception/block13_sepconv1/separable_conv2d/ReadVariableOp", "op": "Const", "attr": {"value": {"tensor": {"dtype": "DT_FLOAT", "tensorShape": {"dim": [{"size": "3"}, {"size": "3"}, {"size": "728"}, {"size": "1"}]}}}, "dtype": {"type": "DT_FLOAT"}}}, {"name": "StatefulPartitionedCall/model_8/xception/block13_sepconv2/separable_conv2d/ReadVariableOp", "op": "Const", "attr": {"value": {"tensor": {"dtype": "DT_FLOAT", "tensorShape": {"dim": [{"size": "3"}, {"size": "3"}, {"size": "728"}, {"size": "1"}]}}}, "dtype": {"type": "DT_FLOAT"}}}, {"name": "StatefulPartitionedCall/model_8/xception/block12_sepconv1/separable_conv2d/ReadVariableOp", "op": "Const", "attr": {"dtype": {"type": "DT_FLOAT"}, "value": {"tensor": {"dtype": "DT_FLOAT", "tensorShape": {"dim": [{"size": "3"}, {"size": "3"}, {"size": "728"}, {"size": "1"}]}}}}}, {"name": "StatefulPartitionedCall/model_8/xception/block12_sepconv2/separable_conv2d/ReadVariableOp", "op": "Const", "attr": {"value": {"tensor": {"dtype": "DT_FLOAT", "tensorShape": {"dim": [{"size": "3"}, {"size": "3"}, {"size": "728"}, {"size": "1"}]}}}, "dtype": {"type": "DT_FLOAT"}}}, {"name": "StatefulPartitionedCall/model_8/xception/block12_sepconv3/separable_conv2d/ReadVariableOp", "op": "Const", "attr": {"value": {"tensor": {"dtype": "DT_FLOAT", "tensorShape": {"dim": [{"size": "3"}, {"size": "3"}, {"size": "728"}, {"size": "1"}]}}}, "dtype": {"type": "DT_FLOAT"}}}, {"name": "StatefulPartitionedCall/model_8/xception/block11_sepconv1/separable_conv2d/ReadVariableOp", "op": "Const", "attr": {"value": {"tensor": {"dtype": "DT_FLOAT", "tensorShape": {"dim": [{"size": "3"}, {"size": "3"}, {"size": "728"}, {"size": "1"}]}}}, "dtype": {"type": "DT_FLOAT"}}}, {"name": "StatefulPartitionedCall/model_8/xception/block11_sepconv2/separable_conv2d/ReadVariableOp", "op": "Const", "attr": {"value": {"tensor": {"dtype": "DT_FLOAT", "tensorShape": {"dim": [{"size": "3"}, {"size": "3"}, {"size": "728"}, {"size": "1"}]}}}, "dtype": {"type": "DT_FLOAT"}}}, {"name": "StatefulPartitionedCall/model_8/xception/block11_sepconv3/separable_conv2d/ReadVariableOp", "op": "Const", "attr": {"value": {"tensor": {"dtype": "DT_FLOAT", "tensorShape": {"dim": [{"size": "3"}, {"size": "3"}, {"size": "728"}, {"size": "1"}]}}}, "dtype": {"type": "DT_FLOAT"}}}, {"name": "StatefulPartitionedCall/model_8/xception/block10_sepconv1/separable_conv2d/ReadVariableOp", "op": "Const", "attr": {"value": {"tensor": {"dtype": "DT_FLOAT", "tensorShape": {"dim": [{"size": "3"}, {"size": "3"}, {"size": "728"}, {"size": "1"}]}}}, "dtype": {"type": "DT_FLOAT"}}}, {"name": "StatefulPartitionedCall/model_8/xception/block10_sepconv2/separable_conv2d/ReadVariableOp", "op": "Const", "attr": {"dtype": {"type": "DT_FLOAT"}, "value": {"tensor": {"dtype": "DT_FLOAT", "tensorShape": {"dim": [{"size": "3"}, {"size": "3"}, {"size": "728"}, {"size": "1"}]}}}}}, {"name": "StatefulPartitionedCall/model_8/xception/block10_sepconv3/separable_conv2d/ReadVariableOp", "op": "Const", "attr": {"value": {"tensor": {"dtype": "DT_FLOAT", "tensorShape": {"dim": [{"size": "3"}, {"size": "3"}, {"size": "728"}, {"size": "1"}]}}}, "dtype": {"type": "DT_FLOAT"}}}, {"name": "StatefulPartitionedCall/model_8/xception/block9_sepconv1/separable_conv2d/ReadVariableOp", "op": "Const", "attr": {"dtype": {"type": "DT_FLOAT"}, "value": {"tensor": {"dtype": "DT_FLOAT", "tensorShape": {"dim": [{"size": "3"}, {"size": "3"}, {"size": "728"}, {"size": "1"}]}}}}}, {"name": "StatefulPartitionedCall/model_8/xception/block9_sepconv2/separable_conv2d/ReadVariableOp", "op": "Const", "attr": {"value": {"tensor": {"dtype": "DT_FLOAT", "tensorShape": {"dim": [{"size": "3"}, {"size": "3"}, {"size": "728"}, {"size": "1"}]}}}, "dtype": {"type": "DT_FLOAT"}}}, {"name": "StatefulPartitionedCall/model_8/xception/block9_sepconv3/separable_conv2d/ReadVariableOp", "op": "Const", "attr": {"value": {"tensor": {"dtype": "DT_FLOAT", "tensorShape": {"dim": [{"size": "3"}, {"size": "3"}, {"size": "728"}, {"size": "1"}]}}}, "dtype": {"type": "DT_FLOAT"}}}, {"name": "StatefulPartitionedCall/model_8/xception/block8_sepconv1/separable_conv2d/ReadVariableOp", "op": "Const", "attr": {"value": {"tensor": {"dtype": "DT_FLOAT", "tensorShape": {"dim": [{"size": "3"}, {"size": "3"}, {"size": "728"}, {"size": "1"}]}}}, "dtype": {"type": "DT_FLOAT"}}}, {"name": "StatefulPartitionedCall/model_8/xception/block8_sepconv2/separable_conv2d/ReadVariableOp", "op": "Const", "attr": {"value": {"tensor": {"dtype": "DT_FLOAT", "tensorShape": {"dim": [{"size": "3"}, {"size": "3"}, {"size": "728"}, {"size": "1"}]}}}, "dtype": {"type": "DT_FLOAT"}}}, {"name": "StatefulPartitionedCall/model_8/xception/block8_sepconv3/separable_conv2d/ReadVariableOp", "op": "Const", "attr": {"dtype": {"type": "DT_FLOAT"}, "value": {"tensor": {"dtype": "DT_FLOAT", "tensorShape": {"dim": [{"size": "3"}, {"size": "3"}, {"size": "728"}, {"size": "1"}]}}}}}, {"name": "StatefulPartitionedCall/model_8/xception/block7_sepconv1/separable_conv2d/ReadVariableOp", "op": "Const", "attr": {"dtype": {"type": "DT_FLOAT"}, "value": {"tensor": {"dtype": "DT_FLOAT", "tensorShape": {"dim": [{"size": "3"}, {"size": "3"}, {"size": "728"}, {"size": "1"}]}}}}}, {"name": "StatefulPartitionedCall/model_8/xception/block7_sepconv2/separable_conv2d/ReadVariableOp", "op": "Const", "attr": {"value": {"tensor": {"dtype": "DT_FLOAT", "tensorShape": {"dim": [{"size": "3"}, {"size": "3"}, {"size": "728"}, {"size": "1"}]}}}, "dtype": {"type": "DT_FLOAT"}}}, {"name": "StatefulPartitionedCall/model_8/xception/block7_sepconv3/separable_conv2d/ReadVariableOp", "op": "Const", "attr": {"value": {"tensor": {"dtype": "DT_FLOAT", "tensorShape": {"dim": [{"size": "3"}, {"size": "3"}, {"size": "728"}, {"size": "1"}]}}}, "dtype": {"type": "DT_FLOAT"}}}, {"name": "StatefulPartitionedCall/model_8/xception/block6_sepconv1/separable_conv2d/ReadVariableOp", "op": "Const", "attr": {"value": {"tensor": {"dtype": "DT_FLOAT", "tensorShape": {"dim": [{"size": "3"}, {"size": "3"}, {"size": "728"}, {"size": "1"}]}}}, "dtype": {"type": "DT_FLOAT"}}}, {"name": "StatefulPartitionedCall/model_8/xception/block6_sepconv2/separable_conv2d/ReadVariableOp", "op": "Const", "attr": {"value": {"tensor": {"dtype": "DT_FLOAT", "tensorShape": {"dim": [{"size": "3"}, {"size": "3"}, {"size": "728"}, {"size": "1"}]}}}, "dtype": {"type": "DT_FLOAT"}}}, {"name": "StatefulPartitionedCall/model_8/xception/block6_sepconv3/separable_conv2d/ReadVariableOp", "op": "Const", "attr": {"value": {"tensor": {"dtype": "DT_FLOAT", "tensorShape": {"dim": [{"size": "3"}, {"size": "3"}, {"size": "728"}, {"size": "1"}]}}}, "dtype": {"type": "DT_FLOAT"}}}, {"name": "StatefulPartitionedCall/model_8/xception/block5_sepconv1/separable_conv2d/ReadVariableOp", "op": "Const", "attr": {"value": {"tensor": {"dtype": "DT_FLOAT", "tensorShape": {"dim": [{"size": "3"}, {"size": "3"}, {"size": "728"}, {"size": "1"}]}}}, "dtype": {"type": "DT_FLOAT"}}}, {"name": "StatefulPartitionedCall/model_8/xception/block5_sepconv2/separable_conv2d/ReadVariableOp", "op": "Const", "attr": {"value": {"tensor": {"dtype": "DT_FLOAT", "tensorShape": {"dim": [{"size": "3"}, {"size": "3"}, {"size": "728"}, {"size": "1"}]}}}, "dtype": {"type": "DT_FLOAT"}}}, {"name": "StatefulPartitionedCall/model_8/xception/block5_sepconv3/separable_conv2d/ReadVariableOp", "op": "Const", "attr": {"value": {"tensor": {"dtype": "DT_FLOAT", "tensorShape": {"dim": [{"size": "3"}, {"size": "3"}, {"size": "728"}, {"size": "1"}]}}}, "dtype": {"type": "DT_FLOAT"}}}, {"name": "StatefulPartitionedCall/model_8/xception/block4_sepconv1/separable_conv2d/ReadVariableOp", "op": "Const", "attr": {"value": {"tensor": {"dtype": "DT_FLOAT", "tensorShape": {"dim": [{"size": "3"}, {"size": "3"}, {"size": "256"}, {"size": "1"}]}}}, "dtype": {"type": "DT_FLOAT"}}}, {"name": "StatefulPartitionedCall/model_8/xception/block4_sepconv2/separable_conv2d/ReadVariableOp", "op": "Const", "attr": {"value": {"tensor": {"dtype": "DT_FLOAT", "tensorShape": {"dim": [{"size": "3"}, {"size": "3"}, {"size": "728"}, {"size": "1"}]}}}, "dtype": {"type": "DT_FLOAT"}}}, {"name": "StatefulPartitionedCall/model_8/xception/block3_sepconv1/separable_conv2d/ReadVariableOp", "op": "Const", "attr": {"value": {"tensor": {"dtype": "DT_FLOAT", "tensorShape": {"dim": [{"size": "3"}, {"size": "3"}, {"size": "128"}, {"size": "1"}]}}}, "dtype": {"type": "DT_FLOAT"}}}, {"name": "StatefulPartitionedCall/model_8/xception/block3_sepconv2/separable_conv2d/ReadVariableOp", "op": "Const", "attr": {"value": {"tensor": {"dtype": "DT_FLOAT", "tensorShape": {"dim": [{"size": "3"}, {"size": "3"}, {"size": "256"}, {"size": "1"}]}}}, "dtype": {"type": "DT_FLOAT"}}}, {"name": "StatefulPartitionedCall/model_8/xception/block2_sepconv1/separable_conv2d/ReadVariableOp", "op": "Const", "attr": {"value": {"tensor": {"dtype": "DT_FLOAT", "tensorShape": {"dim": [{"size": "3"}, {"size": "3"}, {"size": "64"}, {"size": "1"}]}}}, "dtype": {"type": "DT_FLOAT"}}}, {"name": "StatefulPartitionedCall/model_8/xception/block2_sepconv2/separable_conv2d/ReadVariableOp", "op": "Const", "attr": {"value": {"tensor": {"dtype": "DT_FLOAT", "tensorShape": {"dim": [{"size": "3"}, {"size": "3"}, {"size": "128"}, {"size": "1"}]}}}, "dtype": {"type": "DT_FLOAT"}}}, {"name": "StatefulPartitionedCall/model_8/xception/block14_sepconv1/separable_conv2d/ReadVariableOp", "op": "Const", "attr": {"value": {"tensor": {"dtype": "DT_FLOAT", "tensorShape": {"dim": [{"size": "3"}, {"size": "3"}, {"size": "1024"}, {"size": "1"}]}}}, "dtype": {"type": "DT_FLOAT"}}}, {"name": "StatefulPartitionedCall/model_8/xception/block14_sepconv2/separable_conv2d/ReadVariableOp", "op": "Const", "attr": {"value": {"tensor": {"dtype": "DT_FLOAT", "tensorShape": {"dim": [{"size": "3"}, {"size": "3"}, {"size": "1536"}, {"size": "1"}]}}}, "dtype": {"type": "DT_FLOAT"}}}, {"name": "StatefulPartitionedCall/model_8/global_average_pooling2d_8/Mean/reduction_indices", "op": "Const", "attr": {"value": {"tensor": {"dtype": "DT_INT32", "tensorShape": {"dim": [{"size": "2"}]}}}, "dtype": {"type": "DT_INT32"}}}, {"name": "StatefulPartitionedCall/model_8/dense_12/MatMul/ReadVariableOp", "op": "Const", "attr": {"value": {"tensor": {"dtype": "DT_FLOAT", "tensorShape": {"dim": [{"size": "2048"}, {"size": "100"}]}}}, "dtype": {"type": "DT_FLOAT"}}}, {"name": "StatefulPartitionedCall/model_8/dense_12/BiasAdd/ReadVariableOp", "op": "Const", "attr": {"value": {"tensor": {"dtype": "DT_FLOAT", "tensorShape": {"dim": [{"size": "100"}]}}}, "dtype": {"type": "DT_FLOAT"}}}, {"name": "StatefulPartitionedCall/model_8/dense_13/MatMul/ReadVariableOp", "op": "Const", "attr": {"value": {"tensor": {"dtype": "DT_FLOAT", "tensorShape": {"dim": [{"size": "100"}, {"size": "10"}]}}}, "dtype": {"type": "DT_FLOAT"}}}, {"name": "StatefulPartitionedCall/model_8/dense_13/BiasAdd/ReadVariableOp", "op": "Const", "attr": {"value": {"tensor": {"dtype": "DT_FLOAT", "tensorShape": {"dim": [{"size": "10"}]}}}, "dtype": {"type": "DT_FLOAT"}}}, {"name": "input_19", "op": "Placeholder", "attr": {"shape": {"shape": {"dim": [{"size": "-1"}, {"size": "150"}, {"size": "150"}, {"size": "3"}]}}, "dtype": {"type": "DT_FLOAT"}}}, {"name": "StatefulPartitionedCall/model_8/xception/block1_conv1/Conv2D_weights", "op": "Const", "attr": {"dtype": {"type": "DT_FLOAT"}, "value": {"tensor": {"dtype": "DT_FLOAT", "tensorShape": {"dim": [{"size": "3"}, {"size": "3"}, {"size": "3"}, {"size": "32"}]}}}}}, {"name": "StatefulPartitionedCall/model_8/xception/block11_sepconv2/separable_conv2d_weights", "op": "Const", "attr": {"value": {"tensor": {"dtype": "DT_FLOAT", "tensorShape": {"dim": [{"size": "1"}, {"size": "1"}, {"size": "728"}, {"size": "728"}]}}}, "dtype": {"type": "DT_FLOAT"}}}, {"name": "StatefulPartitionedCall/model_8/xception/block1_conv1/Conv2D_bn_offset", "op": "Const", "attr": {"value": {"tensor": {"dtype": "DT_FLOAT", "tensorShape": {"dim": [{"size": "32"}]}}}, "dtype": {"type": "DT_FLOAT"}}}, {"name": "StatefulPartitionedCall/model_8/xception/block1_conv2/Conv2D_weights", "op": "Const", "attr": {"value": {"tensor": {"dtype": "DT_FLOAT", "tensorShape": {"dim": [{"size": "3"}, {"size": "3"}, {"size": "32"}, {"size": "64"}]}}}, "dtype": {"type": "DT_FLOAT"}}}, {"name": "StatefulPartitionedCall/model_8/xception/block11_sepconv2/separable_conv2d_bn_offset", "op": "Const", "attr": {"value": {"tensor": {"dtype": "DT_FLOAT", "tensorShape": {"dim": [{"size": "728"}]}}}, "dtype": {"type": "DT_FLOAT"}}}, {"name": "StatefulPartitionedCall/model_8/xception/block1_conv2/Conv2D_bn_offset", "op": "Const", "attr": {"value": {"tensor": {"dtype": "DT_FLOAT", "tensorShape": {"dim": [{"size": "64"}]}}}, "dtype": {"type": "DT_FLOAT"}}}, {"name": "StatefulPartitionedCall/model_8/xception/block14_sepconv1/separable_conv2d_weights", "op": "Const", "attr": {"value": {"tensor": {"dtype": "DT_FLOAT", "tensorShape": {"dim": [{"size": "1"}, {"size": "1"}, {"size": "1024"}, {"size": "1536"}]}}}, "dtype": {"type": "DT_FLOAT"}}}, {"name": "StatefulPartitionedCall/model_8/xception/conv2d_36/Conv2D_weights", "op": "Const", "attr": {"value": {"tensor": {"dtype": "DT_FLOAT", "tensorShape": {"dim": [{"size": "1"}, {"size": "1"}, {"size": "64"}, {"size": "128"}]}}}, "dtype": {"type": "DT_FLOAT"}}}, {"name": "StatefulPartitionedCall/model_8/xception/conv2d_36/Conv2D_bn_offset", "op": "Const", "attr": {"value": {"tensor": {"dtype": "DT_FLOAT", "tensorShape": {"dim": [{"size": "128"}]}}}, "dtype": {"type": "DT_FLOAT"}}}, {"name": "StatefulPartitionedCall/model_8/xception/block2_sepconv1/separable_conv2d_weights", "op": "Const", "attr": {"value": {"tensor": {"dtype": "DT_FLOAT", "tensorShape": {"dim": [{"size": "1"}, {"size": "1"}, {"size": "64"}, {"size": "128"}]}}}, "dtype": {"type": "DT_FLOAT"}}}, {"name": "StatefulPartitionedCall/model_8/xception/block2_sepconv1/separable_conv2d_bn_offset", "op": "Const", "attr": {"dtype": {"type": "DT_FLOAT"}, "value": {"tensor": {"dtype": "DT_FLOAT", "tensorShape": {"dim": [{"size": "128"}]}}}}}, {"name": "StatefulPartitionedCall/model_8/xception/block11_sepconv3/separable_conv2d_weights", "op": "Const", "attr": {"value": {"tensor": {"dtype": "DT_FLOAT", "tensorShape": {"dim": [{"size": "1"}, {"size": "1"}, {"size": "728"}, {"size": "728"}]}}}, "dtype": {"type": "DT_FLOAT"}}}, {"name": "StatefulPartitionedCall/model_8/xception/block2_sepconv2/separable_conv2d_weights", "op": "Const", "attr": {"dtype": {"type": "DT_FLOAT"}, "value": {"tensor": {"dtype": "DT_FLOAT", "tensorShape": {"dim": [{"size": "1"}, {"size": "1"}, {"size": "128"}, {"size": "128"}]}}}}}, {"name": "StatefulPartitionedCall/model_8/xception/block2_sepconv2/separable_conv2d_bn_offset", "op": "Const", "attr": {"value": {"tensor": {"dtype": "DT_FLOAT", "tensorShape": {"dim": [{"size": "128"}]}}}, "dtype": {"type": "DT_FLOAT"}}}, {"name": "StatefulPartitionedCall/model_8/xception/conv2d_37/Conv2D_weights", "op": "Const", "attr": {"value": {"tensor": {"dtype": "DT_FLOAT", "tensorShape": {"dim": [{"size": "1"}, {"size": "1"}, {"size": "128"}, {"size": "256"}]}}}, "dtype": {"type": "DT_FLOAT"}}}, {"name": "StatefulPartitionedCall/model_8/xception/block11_sepconv3/separable_conv2d_bn_offset", "op": "Const", "attr": {"value": {"tensor": {"dtype": "DT_FLOAT", "tensorShape": {"dim": [{"size": "728"}]}}}, "dtype": {"type": "DT_FLOAT"}}}, {"name": "StatefulPartitionedCall/model_8/xception/conv2d_37/Conv2D_bn_offset", "op": "Const", "attr": {"value": {"tensor": {"dtype": "DT_FLOAT", "tensorShape": {"dim": [{"size": "256"}]}}}, "dtype": {"type": "DT_FLOAT"}}}, {"name": "StatefulPartitionedCall/model_8/xception/block3_sepconv1/separable_conv2d_weights", "op": "Const", "attr": {"value": {"tensor": {"dtype": "DT_FLOAT", "tensorShape": {"dim": [{"size": "1"}, {"size": "1"}, {"size": "128"}, {"size": "256"}]}}}, "dtype": {"type": "DT_FLOAT"}}}, {"name": "StatefulPartitionedCall/model_8/xception/block3_sepconv1/separable_conv2d_bn_offset", "op": "Const", "attr": {"value": {"tensor": {"dtype": "DT_FLOAT", "tensorShape": {"dim": [{"size": "256"}]}}}, "dtype": {"type": "DT_FLOAT"}}}, {"name": "StatefulPartitionedCall/model_8/xception/block3_sepconv2/separable_conv2d_weights", "op": "Const", "attr": {"value": {"tensor": {"dtype": "DT_FLOAT", "tensorShape": {"dim": [{"size": "1"}, {"size": "1"}, {"size": "256"}, {"size": "256"}]}}}, "dtype": {"type": "DT_FLOAT"}}}, {"name": "StatefulPartitionedCall/model_8/xception/block3_sepconv2/separable_conv2d_bn_offset", "op": "Const", "attr": {"value": {"tensor": {"dtype": "DT_FLOAT", "tensorShape": {"dim": [{"size": "256"}]}}}, "dtype": {"type": "DT_FLOAT"}}}, {"name": "StatefulPartitionedCall/model_8/xception/conv2d_38/Conv2D_weights", "op": "Const", "attr": {"value": {"tensor": {"dtype": "DT_FLOAT", "tensorShape": {"dim": [{"size": "1"}, {"size": "1"}, {"size": "256"}, {"size": "728"}]}}}, "dtype": {"type": "DT_FLOAT"}}}, {"name": "StatefulPartitionedCall/model_8/xception/conv2d_38/Conv2D_bn_offset", "op": "Const", "attr": {"value": {"tensor": {"dtype": "DT_FLOAT", "tensorShape": {"dim": [{"size": "728"}]}}}, "dtype": {"type": "DT_FLOAT"}}}, {"name": "StatefulPartitionedCall/model_8/xception/block4_sepconv1/separable_conv2d_weights", "op": "Const", "attr": {"value": {"tensor": {"dtype": "DT_FLOAT", "tensorShape": {"dim": [{"size": "1"}, {"size": "1"}, {"size": "256"}, {"size": "728"}]}}}, "dtype": {"type": "DT_FLOAT"}}}, {"name": "StatefulPartitionedCall/model_8/xception/block12_sepconv1/separable_conv2d_weights", "op": "Const", "attr": {"value": {"tensor": {"dtype": "DT_FLOAT", "tensorShape": {"dim": [{"size": "1"}, {"size": "1"}, {"size": "728"}, {"size": "728"}]}}}, "dtype": {"type": "DT_FLOAT"}}}, {"name": "StatefulPartitionedCall/model_8/xception/block4_sepconv1/separable_conv2d_bn_offset", "op": "Const", "attr": {"dtype": {"type": "DT_FLOAT"}, "value": {"tensor": {"dtype": "DT_FLOAT", "tensorShape": {"dim": [{"size": "728"}]}}}}}, {"name": "StatefulPartitionedCall/model_8/xception/block14_sepconv1/separable_conv2d_bn_offset", "op": "Const", "attr": {"value": {"tensor": {"dtype": "DT_FLOAT", "tensorShape": {"dim": [{"size": "1536"}]}}}, "dtype": {"type": "DT_FLOAT"}}}, {"name": "StatefulPartitionedCall/model_8/xception/block4_sepconv2/separable_conv2d_weights", "op": "Const", "attr": {"value": {"tensor": {"dtype": "DT_FLOAT", "tensorShape": {"dim": [{"size": "1"}, {"size": "1"}, {"size": "728"}, {"size": "728"}]}}}, "dtype": {"type": "DT_FLOAT"}}}, {"name": "StatefulPartitionedCall/model_8/xception/block12_sepconv1/separable_conv2d_bn_offset", "op": "Const", "attr": {"value": {"tensor": {"dtype": "DT_FLOAT", "tensorShape": {"dim": [{"size": "728"}]}}}, "dtype": {"type": "DT_FLOAT"}}}, {"name": "StatefulPartitionedCall/model_8/xception/block4_sepconv2/separable_conv2d_bn_offset", "op": "Const", "attr": {"value": {"tensor": {"dtype": "DT_FLOAT", "tensorShape": {"dim": [{"size": "728"}]}}}, "dtype": {"type": "DT_FLOAT"}}}, {"name": "StatefulPartitionedCall/model_8/xception/block5_sepconv1/separable_conv2d_weights", "op": "Const", "attr": {"value": {"tensor": {"dtype": "DT_FLOAT", "tensorShape": {"dim": [{"size": "1"}, {"size": "1"}, {"size": "728"}, {"size": "728"}]}}}, "dtype": {"type": "DT_FLOAT"}}}, {"name": "StatefulPartitionedCall/model_8/xception/block5_sepconv1/separable_conv2d_bn_offset", "op": "Const", "attr": {"value": {"tensor": {"dtype": "DT_FLOAT", "tensorShape": {"dim": [{"size": "728"}]}}}, "dtype": {"type": "DT_FLOAT"}}}, {"name": "StatefulPartitionedCall/model_8/xception/block5_sepconv2/separable_conv2d_weights", "op": "Const", "attr": {"value": {"tensor": {"dtype": "DT_FLOAT", "tensorShape": {"dim": [{"size": "1"}, {"size": "1"}, {"size": "728"}, {"size": "728"}]}}}, "dtype": {"type": "DT_FLOAT"}}}, {"name": "StatefulPartitionedCall/model_8/xception/block5_sepconv2/separable_conv2d_bn_offset", "op": "Const", "attr": {"value": {"tensor": {"dtype": "DT_FLOAT", "tensorShape": {"dim": [{"size": "728"}]}}}, "dtype": {"type": "DT_FLOAT"}}}, {"name": "StatefulPartitionedCall/model_8/xception/block12_sepconv2/separable_conv2d_weights", "op": "Const", "attr": {"dtype": {"type": "DT_FLOAT"}, "value": {"tensor": {"dtype": "DT_FLOAT", "tensorShape": {"dim": [{"size": "1"}, {"size": "1"}, {"size": "728"}, {"size": "728"}]}}}}}, {"name": "StatefulPartitionedCall/model_8/xception/block5_sepconv3/separable_conv2d_weights", "op": "Const", "attr": {"value": {"tensor": {"dtype": "DT_FLOAT", "tensorShape": {"dim": [{"size": "1"}, {"size": "1"}, {"size": "728"}, {"size": "728"}]}}}, "dtype": {"type": "DT_FLOAT"}}}, {"name": "StatefulPartitionedCall/model_8/xception/block5_sepconv3/separable_conv2d_bn_offset", "op": "Const", "attr": {"value": {"tensor": {"dtype": "DT_FLOAT", "tensorShape": {"dim": [{"size": "728"}]}}}, "dtype": {"type": "DT_FLOAT"}}}, {"name": "StatefulPartitionedCall/model_8/xception/block6_sepconv1/separable_conv2d_weights", "op": "Const", "attr": {"value": {"tensor": {"dtype": "DT_FLOAT", "tensorShape": {"dim": [{"size": "1"}, {"size": "1"}, {"size": "728"}, {"size": "728"}]}}}, "dtype": {"type": "DT_FLOAT"}}}, {"name": "StatefulPartitionedCall/model_8/xception/block12_sepconv2/separable_conv2d_bn_offset", "op": "Const", "attr": {"value": {"tensor": {"dtype": "DT_FLOAT", "tensorShape": {"dim": [{"size": "728"}]}}}, "dtype": {"type": "DT_FLOAT"}}}, {"name": "StatefulPartitionedCall/model_8/xception/block6_sepconv1/separable_conv2d_bn_offset", "op": "Const", "attr": {"value": {"tensor": {"dtype": "DT_FLOAT", "tensorShape": {"dim": [{"size": "728"}]}}}, "dtype": {"type": "DT_FLOAT"}}}, {"name": "StatefulPartitionedCall/model_8/xception/block6_sepconv2/separable_conv2d_weights", "op": "Const", "attr": {"value": {"tensor": {"dtype": "DT_FLOAT", "tensorShape": {"dim": [{"size": "1"}, {"size": "1"}, {"size": "728"}, {"size": "728"}]}}}, "dtype": {"type": "DT_FLOAT"}}}, {"name": "StatefulPartitionedCall/model_8/xception/block6_sepconv2/separable_conv2d_bn_offset", "op": "Const", "attr": {"value": {"tensor": {"dtype": "DT_FLOAT", "tensorShape": {"dim": [{"size": "728"}]}}}, "dtype": {"type": "DT_FLOAT"}}}, {"name": "StatefulPartitionedCall/model_8/xception/block6_sepconv3/separable_conv2d_weights", "op": "Const", "attr": {"value": {"tensor": {"dtype": "DT_FLOAT", "tensorShape": {"dim": [{"size": "1"}, {"size": "1"}, {"size": "728"}, {"size": "728"}]}}}, "dtype": {"type": "DT_FLOAT"}}}, {"name": "StatefulPartitionedCall/model_8/xception/block12_sepconv3/separable_conv2d_weights", "op": "Const", "attr": {"value": {"tensor": {"dtype": "DT_FLOAT", "tensorShape": {"dim": [{"size": "1"}, {"size": "1"}, {"size": "728"}, {"size": "728"}]}}}, "dtype": {"type": "DT_FLOAT"}}}, {"name": "StatefulPartitionedCall/model_8/xception/block6_sepconv3/separable_conv2d_bn_offset", "op": "Const", "attr": {"value": {"tensor": {"dtype": "DT_FLOAT", "tensorShape": {"dim": [{"size": "728"}]}}}, "dtype": {"type": "DT_FLOAT"}}}, {"name": "StatefulPartitionedCall/model_8/xception/block7_sepconv1/separable_conv2d_weights", "op": "Const", "attr": {"dtype": {"type": "DT_FLOAT"}, "value": {"tensor": {"dtype": "DT_FLOAT", "tensorShape": {"dim": [{"size": "1"}, {"size": "1"}, {"size": "728"}, {"size": "728"}]}}}}}, {"name": "StatefulPartitionedCall/model_8/xception/block14_sepconv2/separable_conv2d_weights", "op": "Const", "attr": {"value": {"tensor": {"dtype": "DT_FLOAT", "tensorShape": {"dim": [{"size": "1"}, {"size": "1"}, {"size": "1536"}, {"size": "2048"}]}}}, "dtype": {"type": "DT_FLOAT"}}}, {"name": "StatefulPartitionedCall/model_8/xception/block7_sepconv1/separable_conv2d_bn_offset", "op": "Const", "attr": {"value": {"tensor": {"dtype": "DT_FLOAT", "tensorShape": {"dim": [{"size": "728"}]}}}, "dtype": {"type": "DT_FLOAT"}}}, {"name": "StatefulPartitionedCall/model_8/xception/block12_sepconv3/separable_conv2d_bn_offset", "op": "Const", "attr": {"value": {"tensor": {"dtype": "DT_FLOAT", "tensorShape": {"dim": [{"size": "728"}]}}}, "dtype": {"type": "DT_FLOAT"}}}, {"name": "StatefulPartitionedCall/model_8/xception/block7_sepconv2/separable_conv2d_weights", "op": "Const", "attr": {"dtype": {"type": "DT_FLOAT"}, "value": {"tensor": {"dtype": "DT_FLOAT", "tensorShape": {"dim": [{"size": "1"}, {"size": "1"}, {"size": "728"}, {"size": "728"}]}}}}}, {"name": "StatefulPartitionedCall/model_8/xception/block7_sepconv2/separable_conv2d_bn_offset", "op": "Const", "attr": {"dtype": {"type": "DT_FLOAT"}, "value": {"tensor": {"dtype": "DT_FLOAT", "tensorShape": {"dim": [{"size": "728"}]}}}}}, {"name": "StatefulPartitionedCall/model_8/xception/block7_sepconv3/separable_conv2d_weights", "op": "Const", "attr": {"value": {"tensor": {"dtype": "DT_FLOAT", "tensorShape": {"dim": [{"size": "1"}, {"size": "1"}, {"size": "728"}, {"size": "728"}]}}}, "dtype": {"type": "DT_FLOAT"}}}, {"name": "StatefulPartitionedCall/model_8/xception/block7_sepconv3/separable_conv2d_bn_offset", "op": "Const", "attr": {"value": {"tensor": {"dtype": "DT_FLOAT", "tensorShape": {"dim": [{"size": "728"}]}}}, "dtype": {"type": "DT_FLOAT"}}}, {"name": "StatefulPartitionedCall/model_8/xception/block8_sepconv1/separable_conv2d_weights", "op": "Const", "attr": {"value": {"tensor": {"dtype": "DT_FLOAT", "tensorShape": {"dim": [{"size": "1"}, {"size": "1"}, {"size": "728"}, {"size": "728"}]}}}, "dtype": {"type": "DT_FLOAT"}}}, {"name": "StatefulPartitionedCall/model_8/xception/block8_sepconv1/separable_conv2d_bn_offset", "op": "Const", "attr": {"dtype": {"type": "DT_FLOAT"}, "value": {"tensor": {"dtype": "DT_FLOAT", "tensorShape": {"dim": [{"size": "728"}]}}}}}, {"name": "StatefulPartitionedCall/model_8/xception/conv2d_39/Conv2D_weights", "op": "Const", "attr": {"dtype": {"type": "DT_FLOAT"}, "value": {"tensor": {"dtype": "DT_FLOAT", "tensorShape": {"dim": [{"size": "1"}, {"size": "1"}, {"size": "728"}, {"size": "1024"}]}}}}}, {"name": "StatefulPartitionedCall/model_8/xception/block8_sepconv2/separable_conv2d_weights", "op": "Const", "attr": {"value": {"tensor": {"dtype": "DT_FLOAT", "tensorShape": {"dim": [{"size": "1"}, {"size": "1"}, {"size": "728"}, {"size": "728"}]}}}, "dtype": {"type": "DT_FLOAT"}}}, {"name": "StatefulPartitionedCall/model_8/xception/block8_sepconv2/separable_conv2d_bn_offset", "op": "Const", "attr": {"value": {"tensor": {"dtype": "DT_FLOAT", "tensorShape": {"dim": [{"size": "728"}]}}}, "dtype": {"type": "DT_FLOAT"}}}, {"name": "StatefulPartitionedCall/model_8/xception/conv2d_39/Conv2D_bn_offset", "op": "Const", "attr": {"dtype": {"type": "DT_FLOAT"}, "value": {"tensor": {"dtype": "DT_FLOAT", "tensorShape": {"dim": [{"size": "1024"}]}}}}}, {"name": "StatefulPartitionedCall/model_8/xception/block8_sepconv3/separable_conv2d_weights", "op": "Const", "attr": {"dtype": {"type": "DT_FLOAT"}, "value": {"tensor": {"dtype": "DT_FLOAT", "tensorShape": {"dim": [{"size": "1"}, {"size": "1"}, {"size": "728"}, {"size": "728"}]}}}}}, {"name": "StatefulPartitionedCall/model_8/xception/block8_sepconv3/separable_conv2d_bn_offset", "op": "Const", "attr": {"value": {"tensor": {"dtype": "DT_FLOAT", "tensorShape": {"dim": [{"size": "728"}]}}}, "dtype": {"type": "DT_FLOAT"}}}, {"name": "StatefulPartitionedCall/model_8/xception/block9_sepconv1/separable_conv2d_weights", "op": "Const", "attr": {"value": {"tensor": {"dtype": "DT_FLOAT", "tensorShape": {"dim": [{"size": "1"}, {"size": "1"}, {"size": "728"}, {"size": "728"}]}}}, "dtype": {"type": "DT_FLOAT"}}}, {"name": "StatefulPartitionedCall/model_8/xception/block13_sepconv1/separable_conv2d_weights", "op": "Const", "attr": {"value": {"tensor": {"dtype": "DT_FLOAT", "tensorShape": {"dim": [{"size": "1"}, {"size": "1"}, {"size": "728"}, {"size": "728"}]}}}, "dtype": {"type": "DT_FLOAT"}}}, {"name": "StatefulPartitionedCall/model_8/xception/block9_sepconv1/separable_conv2d_bn_offset", "op": "Const", "attr": {"value": {"tensor": {"dtype": "DT_FLOAT", "tensorShape": {"dim": [{"size": "728"}]}}}, "dtype": {"type": "DT_FLOAT"}}}, {"name": "StatefulPartitionedCall/model_8/xception/block14_sepconv2/separable_conv2d_bn_offset", "op": "Const", "attr": {"value": {"tensor": {"dtype": "DT_FLOAT", "tensorShape": {"dim": [{"size": "2048"}]}}}, "dtype": {"type": "DT_FLOAT"}}}, {"name": "StatefulPartitionedCall/model_8/xception/block9_sepconv2/separable_conv2d_weights", "op": "Const", "attr": {"value": {"tensor": {"dtype": "DT_FLOAT", "tensorShape": {"dim": [{"size": "1"}, {"size": "1"}, {"size": "728"}, {"size": "728"}]}}}, "dtype": {"type": "DT_FLOAT"}}}, {"name": "StatefulPartitionedCall/model_8/xception/block13_sepconv1/separable_conv2d_bn_offset", "op": "Const", "attr": {"value": {"tensor": {"dtype": "DT_FLOAT", "tensorShape": {"dim": [{"size": "728"}]}}}, "dtype": {"type": "DT_FLOAT"}}}, {"name": "StatefulPartitionedCall/model_8/xception/block9_sepconv2/separable_conv2d_bn_offset", "op": "Const", "attr": {"value": {"tensor": {"dtype": "DT_FLOAT", "tensorShape": {"dim": [{"size": "728"}]}}}, "dtype": {"type": "DT_FLOAT"}}}, {"name": "StatefulPartitionedCall/model_8/xception/block9_sepconv3/separable_conv2d_weights", "op": "Const", "attr": {"value": {"tensor": {"dtype": "DT_FLOAT", "tensorShape": {"dim": [{"size": "1"}, {"size": "1"}, {"size": "728"}, {"size": "728"}]}}}, "dtype": {"type": "DT_FLOAT"}}}, {"name": "StatefulPartitionedCall/model_8/xception/block9_sepconv3/separable_conv2d_bn_offset", "op": "Const", "attr": {"dtype": {"type": "DT_FLOAT"}, "value": {"tensor": {"dtype": "DT_FLOAT", "tensorShape": {"dim": [{"size": "728"}]}}}}}, {"name": "StatefulPartitionedCall/model_8/xception/block10_sepconv1/separable_conv2d_weights", "op": "Const", "attr": {"value": {"tensor": {"dtype": "DT_FLOAT", "tensorShape": {"dim": [{"size": "1"}, {"size": "1"}, {"size": "728"}, {"size": "728"}]}}}, "dtype": {"type": "DT_FLOAT"}}}, {"name": "StatefulPartitionedCall/model_8/xception/block10_sepconv1/separable_conv2d_bn_offset", "op": "Const", "attr": {"value": {"tensor": {"dtype": "DT_FLOAT", "tensorShape": {"dim": [{"size": "728"}]}}}, "dtype": {"type": "DT_FLOAT"}}}, {"name": "StatefulPartitionedCall/model_8/xception/block13_sepconv2/separable_conv2d_weights", "op": "Const", "attr": {"value": {"tensor": {"dtype": "DT_FLOAT", "tensorShape": {"dim": [{"size": "1"}, {"size": "1"}, {"size": "728"}, {"size": "1024"}]}}}, "dtype": {"type": "DT_FLOAT"}}}, {"name": "StatefulPartitionedCall/model_8/xception/block10_sepconv2/separable_conv2d_weights", "op": "Const", "attr": {"value": {"tensor": {"dtype": "DT_FLOAT", "tensorShape": {"dim": [{"size": "1"}, {"size": "1"}, {"size": "728"}, {"size": "728"}]}}}, "dtype": {"type": "DT_FLOAT"}}}, {"name": "StatefulPartitionedCall/model_8/xception/block10_sepconv2/separable_conv2d_bn_offset", "op": "Const", "attr": {"value": {"tensor": {"dtype": "DT_FLOAT", "tensorShape": {"dim": [{"size": "728"}]}}}, "dtype": {"type": "DT_FLOAT"}}}, {"name": "StatefulPartitionedCall/model_8/xception/block13_sepconv2/separable_conv2d_bn_offset", "op": "Const", "attr": {"value": {"tensor": {"dtype": "DT_FLOAT", "tensorShape": {"dim": [{"size": "1024"}]}}}, "dtype": {"type": "DT_FLOAT"}}}, {"name": "StatefulPartitionedCall/model_8/xception/block10_sepconv3/separable_conv2d_weights", "op": "Const", "attr": {"value": {"tensor": {"dtype": "DT_FLOAT", "tensorShape": {"dim": [{"size": "1"}, {"size": "1"}, {"size": "728"}, {"size": "728"}]}}}, "dtype": {"type": "DT_FLOAT"}}}, {"name": "StatefulPartitionedCall/model_8/xception/block10_sepconv3/separable_conv2d_bn_offset", "op": "Const", "attr": {"value": {"tensor": {"dtype": "DT_FLOAT", "tensorShape": {"dim": [{"size": "728"}]}}}, "dtype": {"type": "DT_FLOAT"}}}, {"name": "StatefulPartitionedCall/model_8/xception/block11_sepconv1/separable_conv2d_weights", "op": "Const", "attr": {"dtype": {"type": "DT_FLOAT"}, "value": {"tensor": {"dtype": "DT_FLOAT", "tensorShape": {"dim": [{"size": "1"}, {"size": "1"}, {"size": "728"}, {"size": "728"}]}}}}}, {"name": "StatefulPartitionedCall/model_8/xception/block11_sepconv1/separable_conv2d_bn_offset", "op": "Const", "attr": {"value": {"tensor": {"dtype": "DT_FLOAT", "tensorShape": {"dim": [{"size": "728"}]}}}, "dtype": {"type": "DT_FLOAT"}}}, {"name": "StatefulPartitionedCall/model_8/xception/block1_conv1_act/Relu", "op": "_FusedConv2D", "input": ["input_19", "StatefulPartitionedCall/model_8/xception/block1_conv1/Conv2D_weights", "StatefulPartitionedCall/model_8/xception/block1_conv1/Conv2D_bn_offset"], "device": "/device:CPU:0", "attr": {"dilations": {"list": {"i": ["1", "1", "1", "1"]}}, "T": {"type": "DT_FLOAT"}, "data_format": {"s": "TkhXQw=="}, "strides": {"list": {"i": ["1", "2", "2", "1"]}}, "explicit_paddings": {"list": {}}, "use_cudnn_on_gpu": {"b": true}, "num_args": {"i": "1"}, "epsilon": {"f": 0.0}, "padding": {"s": "VkFMSUQ="}, "fused_ops": {"list": {"s": ["Qmlhc0FkZA==", "UmVsdQ=="]}}}}, {"name": "StatefulPartitionedCall/model_8/xception/block1_conv2_act/Relu", "op": "_FusedConv2D", "input": ["StatefulPartitionedCall/model_8/xception/block1_conv1_act/Relu", "StatefulPartitionedCall/model_8/xception/block1_conv2/Conv2D_weights", "StatefulPartitionedCall/model_8/xception/block1_conv2/Conv2D_bn_offset"], "device": "/device:CPU:0", "attr": {"strides": {"list": {"i": ["1", "1", "1", "1"]}}, "data_format": {"s": "TkhXQw=="}, "use_cudnn_on_gpu": {"b": true}, "explicit_paddings": {"list": {}}, "num_args": {"i": "1"}, "epsilon": {"f": 0.0}, "padding": {"s": "VkFMSUQ="}, "fused_ops": {"list": {"s": ["Qmlhc0FkZA==", "UmVsdQ=="]}}, "dilations": {"list": {"i": ["1", "1", "1", "1"]}}, "T": {"type": "DT_FLOAT"}}}, {"name": "StatefulPartitionedCall/model_8/xception/block2_sepconv1/separable_conv2d/depthwise", "op": "DepthwiseConv2dNative", "input": ["StatefulPartitionedCall/model_8/xception/block1_conv2_act/Relu", "StatefulPartitionedCall/model_8/xception/block2_sepconv1/separable_conv2d/ReadVariableOp"], "attr": {"padding": {"s": "U0FNRQ=="}, "dilations": {"list": {"i": ["1", "1", "1", "1"]}}, "T": {"type": "DT_FLOAT"}, "strides": {"list": {"i": ["1", "1", "1", "1"]}}, "data_format": {"s": "TkhXQw=="}, "explicit_paddings": {"list": {}}}}, {"name": "StatefulPartitionedCall/model_8/xception/batch_normalization_36/FusedBatchNormV3", "op": "_FusedConv2D", "input": ["StatefulPartitionedCall/model_8/xception/block1_conv2_act/Relu", "StatefulPartitionedCall/model_8/xception/conv2d_36/Conv2D_weights", "StatefulPartitionedCall/model_8/xception/conv2d_36/Conv2D_bn_offset"], "device": "/device:CPU:0", "attr": {"dilations": {"list": {"i": ["1", "1", "1", "1"]}}, "T": {"type": "DT_FLOAT"}, "strides": {"list": {"i": ["1", "2", "2", "1"]}}, "data_format": {"s": "TkhXQw=="}, "use_cudnn_on_gpu": {"b": true}, "explicit_paddings": {"list": {}}, "num_args": {"i": "1"}, "epsilon": {"f": 0.0}, "padding": {"s": "U0FNRQ=="}, "fused_ops": {"list": {"s": ["Qmlhc0FkZA=="]}}}}, {"name": "StatefulPartitionedCall/model_8/xception/block2_sepconv2_act/Relu", "op": "_FusedConv2D", "input": ["StatefulPartitionedCall/model_8/xception/block2_sepconv1/separable_conv2d/depthwise", "StatefulPartitionedCall/model_8/xception/block2_sepconv1/separable_conv2d_weights", "StatefulPartitionedCall/model_8/xception/block2_sepconv1/separable_conv2d_bn_offset"], "device": "/device:CPU:0", "attr": {"dilations": {"list": {"i": ["1", "1", "1", "1"]}}, "T": {"type": "DT_FLOAT"}, "strides": {"list": {"i": ["1", "1", "1", "1"]}}, "data_format": {"s": "TkhXQw=="}, "use_cudnn_on_gpu": {"b": true}, "explicit_paddings": {"list": {}}, "num_args": {"i": "1"}, "epsilon": {"f": 0.0}, "padding": {"s": "VkFMSUQ="}, "fused_ops": {"list": {"s": ["Qmlhc0FkZA==", "UmVsdQ=="]}}}}, {"name": "StatefulPartitionedCall/model_8/xception/block2_sepconv2/separable_conv2d/depthwise", "op": "DepthwiseConv2dNative", "input": ["StatefulPartitionedCall/model_8/xception/block2_sepconv2_act/Relu", "StatefulPartitionedCall/model_8/xception/block2_sepconv2/separable_conv2d/ReadVariableOp"], "attr": {"dilations": {"list": {"i": ["1", "1", "1", "1"]}}, "T": {"type": "DT_FLOAT"}, "data_format": {"s": "TkhXQw=="}, "strides": {"list": {"i": ["1", "1", "1", "1"]}}, "explicit_paddings": {"list": {}}, "padding": {"s": "U0FNRQ=="}}}, {"name": "StatefulPartitionedCall/model_8/xception/block2_sepconv2_bn/FusedBatchNormV3", "op": "_FusedConv2D", "input": ["StatefulPartitionedCall/model_8/xception/block2_sepconv2/separable_conv2d/depthwise", "StatefulPartitionedCall/model_8/xception/block2_sepconv2/separable_conv2d_weights", "StatefulPartitionedCall/model_8/xception/block2_sepconv2/separable_conv2d_bn_offset"], "device": "/device:CPU:0", "attr": {"dilations": {"list": {"i": ["1", "1", "1", "1"]}}, "T": {"type": "DT_FLOAT"}, "strides": {"list": {"i": ["1", "1", "1", "1"]}}, "data_format": {"s": "TkhXQw=="}, "use_cudnn_on_gpu": {"b": true}, "explicit_paddings": {"list": {}}, "num_args": {"i": "1"}, "epsilon": {"f": 0.0}, "padding": {"s": "VkFMSUQ="}, "fused_ops": {"list": {"s": ["Qmlhc0FkZA=="]}}}}, {"name": "StatefulPartitionedCall/model_8/xception/block2_pool/MaxPool", "op": "MaxPool", "input": ["StatefulPartitionedCall/model_8/xception/block2_sepconv2_bn/FusedBatchNormV3"], "attr": {"T": {"type": "DT_FLOAT"}, "strides": {"list": {"i": ["1", "2", "2", "1"]}}, "data_format": {"s": "TkhXQw=="}, "explicit_paddings": {"list": {}}, "ksize": {"list": {"i": ["1", "3", "3", "1"]}}, "padding": {"s": "U0FNRQ=="}}}, {"name": "StatefulPartitionedCall/model_8/xception/add_108/add", "op": "AddV2", "input": ["StatefulPartitionedCall/model_8/xception/block2_pool/MaxPool", "StatefulPartitionedCall/model_8/xception/batch_normalization_36/FusedBatchNormV3"], "attr": {"T": {"type": "DT_FLOAT"}}}, {"name": "StatefulPartitionedCall/model_8/xception/block3_sepconv1_act/Relu", "op": "Relu", "input": ["StatefulPartitionedCall/model_8/xception/add_108/add"], "attr": {"T": {"type": "DT_FLOAT"}}}, {"name": "StatefulPartitionedCall/model_8/xception/batch_normalization_37/FusedBatchNormV3", "op": "_FusedConv2D", "input": ["StatefulPartitionedCall/model_8/xception/add_108/add", "StatefulPartitionedCall/model_8/xception/conv2d_37/Conv2D_weights", "StatefulPartitionedCall/model_8/xception/conv2d_37/Conv2D_bn_offset"], "device": "/device:CPU:0", "attr": {"num_args": {"i": "1"}, "epsilon": {"f": 0.0}, "padding": {"s": "U0FNRQ=="}, "fused_ops": {"list": {"s": ["Qmlhc0FkZA=="]}}, "dilations": {"list": {"i": ["1", "1", "1", "1"]}}, "T": {"type": "DT_FLOAT"}, "strides": {"list": {"i": ["1", "2", "2", "1"]}}, "data_format": {"s": "TkhXQw=="}, "use_cudnn_on_gpu": {"b": true}, "explicit_paddings": {"list": {}}}}, {"name": "StatefulPartitionedCall/model_8/xception/block3_sepconv1/separable_conv2d/depthwise", "op": "DepthwiseConv2dNative", "input": ["StatefulPartitionedCall/model_8/xception/block3_sepconv1_act/Relu", "StatefulPartitionedCall/model_8/xception/block3_sepconv1/separable_conv2d/ReadVariableOp"], "attr": {"explicit_paddings": {"list": {}}, "padding": {"s": "U0FNRQ=="}, "dilations": {"list": {"i": ["1", "1", "1", "1"]}}, "T": {"type": "DT_FLOAT"}, "strides": {"list": {"i": ["1", "1", "1", "1"]}}, "data_format": {"s": "TkhXQw=="}}}, {"name": "StatefulPartitionedCall/model_8/xception/block3_sepconv2_act/Relu", "op": "_FusedConv2D", "input": ["StatefulPartitionedCall/model_8/xception/block3_sepconv1/separable_conv2d/depthwise", "StatefulPartitionedCall/model_8/xception/block3_sepconv1/separable_conv2d_weights", "StatefulPartitionedCall/model_8/xception/block3_sepconv1/separable_conv2d_bn_offset"], "device": "/device:CPU:0", "attr": {"dilations": {"list": {"i": ["1", "1", "1", "1"]}}, "T": {"type": "DT_FLOAT"}, "strides": {"list": {"i": ["1", "1", "1", "1"]}}, "data_format": {"s": "TkhXQw=="}, "use_cudnn_on_gpu": {"b": true}, "explicit_paddings": {"list": {}}, "num_args": {"i": "1"}, "epsilon": {"f": 0.0}, "padding": {"s": "VkFMSUQ="}, "fused_ops": {"list": {"s": ["Qmlhc0FkZA==", "UmVsdQ=="]}}}}, {"name": "StatefulPartitionedCall/model_8/xception/block3_sepconv2/separable_conv2d/depthwise", "op": "DepthwiseConv2dNative", "input": ["StatefulPartitionedCall/model_8/xception/block3_sepconv2_act/Relu", "StatefulPartitionedCall/model_8/xception/block3_sepconv2/separable_conv2d/ReadVariableOp"], "attr": {"padding": {"s": "U0FNRQ=="}, "dilations": {"list": {"i": ["1", "1", "1", "1"]}}, "T": {"type": "DT_FLOAT"}, "data_format": {"s": "TkhXQw=="}, "strides": {"list": {"i": ["1", "1", "1", "1"]}}, "explicit_paddings": {"list": {}}}}, {"name": "StatefulPartitionedCall/model_8/xception/block3_sepconv2_bn/FusedBatchNormV3", "op": "_FusedConv2D", "input": ["StatefulPartitionedCall/model_8/xception/block3_sepconv2/separable_conv2d/depthwise", "StatefulPartitionedCall/model_8/xception/block3_sepconv2/separable_conv2d_weights", "StatefulPartitionedCall/model_8/xception/block3_sepconv2/separable_conv2d_bn_offset"], "device": "/device:CPU:0", "attr": {"strides": {"list": {"i": ["1", "1", "1", "1"]}}, "data_format": {"s": "TkhXQw=="}, "explicit_paddings": {"list": {}}, "use_cudnn_on_gpu": {"b": true}, "num_args": {"i": "1"}, "epsilon": {"f": 0.0}, "padding": {"s": "VkFMSUQ="}, "fused_ops": {"list": {"s": ["Qmlhc0FkZA=="]}}, "dilations": {"list": {"i": ["1", "1", "1", "1"]}}, "T": {"type": "DT_FLOAT"}}}, {"name": "StatefulPartitionedCall/model_8/xception/block3_pool/MaxPool", "op": "MaxPool", "input": ["StatefulPartitionedCall/model_8/xception/block3_sepconv2_bn/FusedBatchNormV3"], "attr": {"T": {"type": "DT_FLOAT"}, "strides": {"list": {"i": ["1", "2", "2", "1"]}}, "data_format": {"s": "TkhXQw=="}, "explicit_paddings": {"list": {}}, "ksize": {"list": {"i": ["1", "3", "3", "1"]}}, "padding": {"s": "U0FNRQ=="}}}, {"name": "StatefulPartitionedCall/model_8/xception/add_109/add", "op": "AddV2", "input": ["StatefulPartitionedCall/model_8/xception/block3_pool/MaxPool", "StatefulPartitionedCall/model_8/xception/batch_normalization_37/FusedBatchNormV3"], "attr": {"T": {"type": "DT_FLOAT"}}}, {"name": "StatefulPartitionedCall/model_8/xception/block4_sepconv1_act/Relu", "op": "Relu", "input": ["StatefulPartitionedCall/model_8/xception/add_109/add"], "attr": {"T": {"type": "DT_FLOAT"}}}, {"name": "StatefulPartitionedCall/model_8/xception/batch_normalization_38/FusedBatchNormV3", "op": "_FusedConv2D", "input": ["StatefulPartitionedCall/model_8/xception/add_109/add", "StatefulPartitionedCall/model_8/xception/conv2d_38/Conv2D_weights", "StatefulPartitionedCall/model_8/xception/conv2d_38/Conv2D_bn_offset"], "device": "/device:CPU:0", "attr": {"epsilon": {"f": 0.0}, "padding": {"s": "U0FNRQ=="}, "fused_ops": {"list": {"s": ["Qmlhc0FkZA=="]}}, "dilations": {"list": {"i": ["1", "1", "1", "1"]}}, "T": {"type": "DT_FLOAT"}, "strides": {"list": {"i": ["1", "2", "2", "1"]}}, "data_format": {"s": "TkhXQw=="}, "explicit_paddings": {"list": {}}, "use_cudnn_on_gpu": {"b": true}, "num_args": {"i": "1"}}}, {"name": "StatefulPartitionedCall/model_8/xception/block4_sepconv1/separable_conv2d/depthwise", "op": "DepthwiseConv2dNative", "input": ["StatefulPartitionedCall/model_8/xception/block4_sepconv1_act/Relu", "StatefulPartitionedCall/model_8/xception/block4_sepconv1/separable_conv2d/ReadVariableOp"], "attr": {"dilations": {"list": {"i": ["1", "1", "1", "1"]}}, "T": {"type": "DT_FLOAT"}, "strides": {"list": {"i": ["1", "1", "1", "1"]}}, "data_format": {"s": "TkhXQw=="}, "explicit_paddings": {"list": {}}, "padding": {"s": "U0FNRQ=="}}}, {"name": "StatefulPartitionedCall/model_8/xception/block4_sepconv2_act/Relu", "op": "_FusedConv2D", "input": ["StatefulPartitionedCall/model_8/xception/block4_sepconv1/separable_conv2d/depthwise", "StatefulPartitionedCall/model_8/xception/block4_sepconv1/separable_conv2d_weights", "StatefulPartitionedCall/model_8/xception/block4_sepconv1/separable_conv2d_bn_offset"], "device": "/device:CPU:0", "attr": {"explicit_paddings": {"list": {}}, "use_cudnn_on_gpu": {"b": true}, "num_args": {"i": "1"}, "epsilon": {"f": 0.0}, "padding": {"s": "VkFMSUQ="}, "fused_ops": {"list": {"s": ["Qmlhc0FkZA==", "UmVsdQ=="]}}, "dilations": {"list": {"i": ["1", "1", "1", "1"]}}, "T": {"type": "DT_FLOAT"}, "data_format": {"s": "TkhXQw=="}, "strides": {"list": {"i": ["1", "1", "1", "1"]}}}}, {"name": "StatefulPartitionedCall/model_8/xception/block4_sepconv2/separable_conv2d/depthwise", "op": "DepthwiseConv2dNative", "input": ["StatefulPartitionedCall/model_8/xception/block4_sepconv2_act/Relu", "StatefulPartitionedCall/model_8/xception/block4_sepconv2/separable_conv2d/ReadVariableOp"], "attr": {"dilations": {"list": {"i": ["1", "1", "1", "1"]}}, "T": {"type": "DT_FLOAT"}, "data_format": {"s": "TkhXQw=="}, "strides": {"list": {"i": ["1", "1", "1", "1"]}}, "explicit_paddings": {"list": {}}, "padding": {"s": "U0FNRQ=="}}}, {"name": "StatefulPartitionedCall/model_8/xception/block4_sepconv2_bn/FusedBatchNormV3", "op": "_FusedConv2D", "input": ["StatefulPartitionedCall/model_8/xception/block4_sepconv2/separable_conv2d/depthwise", "StatefulPartitionedCall/model_8/xception/block4_sepconv2/separable_conv2d_weights", "StatefulPartitionedCall/model_8/xception/block4_sepconv2/separable_conv2d_bn_offset"], "device": "/device:CPU:0", "attr": {"use_cudnn_on_gpu": {"b": true}, "explicit_paddings": {"list": {}}, "num_args": {"i": "1"}, "epsilon": {"f": 0.0}, "padding": {"s": "VkFMSUQ="}, "fused_ops": {"list": {"s": ["Qmlhc0FkZA=="]}}, "dilations": {"list": {"i": ["1", "1", "1", "1"]}}, "T": {"type": "DT_FLOAT"}, "strides": {"list": {"i": ["1", "1", "1", "1"]}}, "data_format": {"s": "TkhXQw=="}}}, {"name": "StatefulPartitionedCall/model_8/xception/block4_pool/MaxPool", "op": "MaxPool", "input": ["StatefulPartitionedCall/model_8/xception/block4_sepconv2_bn/FusedBatchNormV3"], "attr": {"T": {"type": "DT_FLOAT"}, "data_format": {"s": "TkhXQw=="}, "strides": {"list": {"i": ["1", "2", "2", "1"]}}, "explicit_paddings": {"list": {}}, "ksize": {"list": {"i": ["1", "3", "3", "1"]}}, "padding": {"s": "U0FNRQ=="}}}, {"name": "StatefulPartitionedCall/model_8/xception/add_110/add", "op": "AddV2", "input": ["StatefulPartitionedCall/model_8/xception/block4_pool/MaxPool", "StatefulPartitionedCall/model_8/xception/batch_normalization_38/FusedBatchNormV3"], "attr": {"T": {"type": "DT_FLOAT"}}}, {"name": "StatefulPartitionedCall/model_8/xception/block5_sepconv1_act/Relu", "op": "Relu", "input": ["StatefulPartitionedCall/model_8/xception/add_110/add"], "attr": {"T": {"type": "DT_FLOAT"}}}, {"name": "StatefulPartitionedCall/model_8/xception/block5_sepconv1/separable_conv2d/depthwise", "op": "DepthwiseConv2dNative", "input": ["StatefulPartitionedCall/model_8/xception/block5_sepconv1_act/Relu", "StatefulPartitionedCall/model_8/xception/block5_sepconv1/separable_conv2d/ReadVariableOp"], "attr": {"dilations": {"list": {"i": ["1", "1", "1", "1"]}}, "T": {"type": "DT_FLOAT"}, "strides": {"list": {"i": ["1", "1", "1", "1"]}}, "data_format": {"s": "TkhXQw=="}, "explicit_paddings": {"list": {}}, "padding": {"s": "U0FNRQ=="}}}, {"name": "StatefulPartitionedCall/model_8/xception/block5_sepconv2_act/Relu", "op": "_FusedConv2D", "input": ["StatefulPartitionedCall/model_8/xception/block5_sepconv1/separable_conv2d/depthwise", "StatefulPartitionedCall/model_8/xception/block5_sepconv1/separable_conv2d_weights", "StatefulPartitionedCall/model_8/xception/block5_sepconv1/separable_conv2d_bn_offset"], "device": "/device:CPU:0", "attr": {"strides": {"list": {"i": ["1", "1", "1", "1"]}}, "data_format": {"s": "TkhXQw=="}, "use_cudnn_on_gpu": {"b": true}, "explicit_paddings": {"list": {}}, "num_args": {"i": "1"}, "epsilon": {"f": 0.0}, "padding": {"s": "VkFMSUQ="}, "fused_ops": {"list": {"s": ["Qmlhc0FkZA==", "UmVsdQ=="]}}, "dilations": {"list": {"i": ["1", "1", "1", "1"]}}, "T": {"type": "DT_FLOAT"}}}, {"name": "StatefulPartitionedCall/model_8/xception/block5_sepconv2/separable_conv2d/depthwise", "op": "DepthwiseConv2dNative", "input": ["StatefulPartitionedCall/model_8/xception/block5_sepconv2_act/Relu", "StatefulPartitionedCall/model_8/xception/block5_sepconv2/separable_conv2d/ReadVariableOp"], "attr": {"padding": {"s": "U0FNRQ=="}, "dilations": {"list": {"i": ["1", "1", "1", "1"]}}, "T": {"type": "DT_FLOAT"}, "data_format": {"s": "TkhXQw=="}, "strides": {"list": {"i": ["1", "1", "1", "1"]}}, "explicit_paddings": {"list": {}}}}, {"name": "StatefulPartitionedCall/model_8/xception/block5_sepconv3_act/Relu", "op": "_FusedConv2D", "input": ["StatefulPartitionedCall/model_8/xception/block5_sepconv2/separable_conv2d/depthwise", "StatefulPartitionedCall/model_8/xception/block5_sepconv2/separable_conv2d_weights", "StatefulPartitionedCall/model_8/xception/block5_sepconv2/separable_conv2d_bn_offset"], "device": "/device:CPU:0", "attr": {"dilations": {"list": {"i": ["1", "1", "1", "1"]}}, "T": {"type": "DT_FLOAT"}, "data_format": {"s": "TkhXQw=="}, "strides": {"list": {"i": ["1", "1", "1", "1"]}}, "use_cudnn_on_gpu": {"b": true}, "explicit_paddings": {"list": {}}, "num_args": {"i": "1"}, "epsilon": {"f": 0.0}, "padding": {"s": "VkFMSUQ="}, "fused_ops": {"list": {"s": ["Qmlhc0FkZA==", "UmVsdQ=="]}}}}, {"name": "StatefulPartitionedCall/model_8/xception/block5_sepconv3/separable_conv2d/depthwise", "op": "DepthwiseConv2dNative", "input": ["StatefulPartitionedCall/model_8/xception/block5_sepconv3_act/Relu", "StatefulPartitionedCall/model_8/xception/block5_sepconv3/separable_conv2d/ReadVariableOp"], "attr": {"dilations": {"list": {"i": ["1", "1", "1", "1"]}}, "T": {"type": "DT_FLOAT"}, "data_format": {"s": "TkhXQw=="}, "strides": {"list": {"i": ["1", "1", "1", "1"]}}, "explicit_paddings": {"list": {}}, "padding": {"s": "U0FNRQ=="}}}, {"name": "StatefulPartitionedCall/model_8/xception/block5_sepconv3_bn/FusedBatchNormV3", "op": "_FusedConv2D", "input": ["StatefulPartitionedCall/model_8/xception/block5_sepconv3/separable_conv2d/depthwise", "StatefulPartitionedCall/model_8/xception/block5_sepconv3/separable_conv2d_weights", "StatefulPartitionedCall/model_8/xception/block5_sepconv3/separable_conv2d_bn_offset"], "device": "/device:CPU:0", "attr": {"dilations": {"list": {"i": ["1", "1", "1", "1"]}}, "T": {"type": "DT_FLOAT"}, "data_format": {"s": "TkhXQw=="}, "strides": {"list": {"i": ["1", "1", "1", "1"]}}, "use_cudnn_on_gpu": {"b": true}, "explicit_paddings": {"list": {}}, "num_args": {"i": "1"}, "epsilon": {"f": 0.0}, "padding": {"s": "VkFMSUQ="}, "fused_ops": {"list": {"s": ["Qmlhc0FkZA=="]}}}}, {"name": "StatefulPartitionedCall/model_8/xception/add_111/add", "op": "AddV2", "input": ["StatefulPartitionedCall/model_8/xception/block5_sepconv3_bn/FusedBatchNormV3", "StatefulPartitionedCall/model_8/xception/add_110/add"], "attr": {"T": {"type": "DT_FLOAT"}}}, {"name": "StatefulPartitionedCall/model_8/xception/block6_sepconv1_act/Relu", "op": "Relu", "input": ["StatefulPartitionedCall/model_8/xception/add_111/add"], "attr": {"T": {"type": "DT_FLOAT"}}}, {"name": "StatefulPartitionedCall/model_8/xception/block6_sepconv1/separable_conv2d/depthwise", "op": "DepthwiseConv2dNative", "input": ["StatefulPartitionedCall/model_8/xception/block6_sepconv1_act/Relu", "StatefulPartitionedCall/model_8/xception/block6_sepconv1/separable_conv2d/ReadVariableOp"], "attr": {"strides": {"list": {"i": ["1", "1", "1", "1"]}}, "data_format": {"s": "TkhXQw=="}, "explicit_paddings": {"list": {}}, "padding": {"s": "U0FNRQ=="}, "dilations": {"list": {"i": ["1", "1", "1", "1"]}}, "T": {"type": "DT_FLOAT"}}}, {"name": "StatefulPartitionedCall/model_8/xception/block6_sepconv2_act/Relu", "op": "_FusedConv2D", "input": ["StatefulPartitionedCall/model_8/xception/block6_sepconv1/separable_conv2d/depthwise", "StatefulPartitionedCall/model_8/xception/block6_sepconv1/separable_conv2d_weights", "StatefulPartitionedCall/model_8/xception/block6_sepconv1/separable_conv2d_bn_offset"], "device": "/device:CPU:0", "attr": {"dilations": {"list": {"i": ["1", "1", "1", "1"]}}, "T": {"type": "DT_FLOAT"}, "data_format": {"s": "TkhXQw=="}, "strides": {"list": {"i": ["1", "1", "1", "1"]}}, "explicit_paddings": {"list": {}}, "use_cudnn_on_gpu": {"b": true}, "num_args": {"i": "1"}, "epsilon": {"f": 0.0}, "padding": {"s": "VkFMSUQ="}, "fused_ops": {"list": {"s": ["Qmlhc0FkZA==", "UmVsdQ=="]}}}}, {"name": "StatefulPartitionedCall/model_8/xception/block6_sepconv2/separable_conv2d/depthwise", "op": "DepthwiseConv2dNative", "input": ["StatefulPartitionedCall/model_8/xception/block6_sepconv2_act/Relu", "StatefulPartitionedCall/model_8/xception/block6_sepconv2/separable_conv2d/ReadVariableOp"], "attr": {"dilations": {"list": {"i": ["1", "1", "1", "1"]}}, "T": {"type": "DT_FLOAT"}, "data_format": {"s": "TkhXQw=="}, "strides": {"list": {"i": ["1", "1", "1", "1"]}}, "explicit_paddings": {"list": {}}, "padding": {"s": "U0FNRQ=="}}}, {"name": "StatefulPartitionedCall/model_8/xception/block6_sepconv3_act/Relu", "op": "_FusedConv2D", "input": ["StatefulPartitionedCall/model_8/xception/block6_sepconv2/separable_conv2d/depthwise", "StatefulPartitionedCall/model_8/xception/block6_sepconv2/separable_conv2d_weights", "StatefulPartitionedCall/model_8/xception/block6_sepconv2/separable_conv2d_bn_offset"], "device": "/device:CPU:0", "attr": {"dilations": {"list": {"i": ["1", "1", "1", "1"]}}, "T": {"type": "DT_FLOAT"}, "strides": {"list": {"i": ["1", "1", "1", "1"]}}, "data_format": {"s": "TkhXQw=="}, "use_cudnn_on_gpu": {"b": true}, "explicit_paddings": {"list": {}}, "num_args": {"i": "1"}, "epsilon": {"f": 0.0}, "padding": {"s": "VkFMSUQ="}, "fused_ops": {"list": {"s": ["Qmlhc0FkZA==", "UmVsdQ=="]}}}}, {"name": "StatefulPartitionedCall/model_8/xception/block6_sepconv3/separable_conv2d/depthwise", "op": "DepthwiseConv2dNative", "input": ["StatefulPartitionedCall/model_8/xception/block6_sepconv3_act/Relu", "StatefulPartitionedCall/model_8/xception/block6_sepconv3/separable_conv2d/ReadVariableOp"], "attr": {"dilations": {"list": {"i": ["1", "1", "1", "1"]}}, "T": {"type": "DT_FLOAT"}, "strides": {"list": {"i": ["1", "1", "1", "1"]}}, "data_format": {"s": "TkhXQw=="}, "explicit_paddings": {"list": {}}, "padding": {"s": "U0FNRQ=="}}}, {"name": "StatefulPartitionedCall/model_8/xception/block6_sepconv3_bn/FusedBatchNormV3", "op": "_FusedConv2D", "input": ["StatefulPartitionedCall/model_8/xception/block6_sepconv3/separable_conv2d/depthwise", "StatefulPartitionedCall/model_8/xception/block6_sepconv3/separable_conv2d_weights", "StatefulPartitionedCall/model_8/xception/block6_sepconv3/separable_conv2d_bn_offset"], "device": "/device:CPU:0", "attr": {"strides": {"list": {"i": ["1", "1", "1", "1"]}}, "data_format": {"s": "TkhXQw=="}, "explicit_paddings": {"list": {}}, "use_cudnn_on_gpu": {"b": true}, "num_args": {"i": "1"}, "epsilon": {"f": 0.0}, "padding": {"s": "VkFMSUQ="}, "fused_ops": {"list": {"s": ["Qmlhc0FkZA=="]}}, "dilations": {"list": {"i": ["1", "1", "1", "1"]}}, "T": {"type": "DT_FLOAT"}}}, {"name": "StatefulPartitionedCall/model_8/xception/add_112/add", "op": "AddV2", "input": ["StatefulPartitionedCall/model_8/xception/block6_sepconv3_bn/FusedBatchNormV3", "StatefulPartitionedCall/model_8/xception/add_111/add"], "attr": {"T": {"type": "DT_FLOAT"}}}, {"name": "StatefulPartitionedCall/model_8/xception/block7_sepconv1_act/Relu", "op": "Relu", "input": ["StatefulPartitionedCall/model_8/xception/add_112/add"], "attr": {"T": {"type": "DT_FLOAT"}}}, {"name": "StatefulPartitionedCall/model_8/xception/block7_sepconv1/separable_conv2d/depthwise", "op": "DepthwiseConv2dNative", "input": ["StatefulPartitionedCall/model_8/xception/block7_sepconv1_act/Relu", "StatefulPartitionedCall/model_8/xception/block7_sepconv1/separable_conv2d/ReadVariableOp"], "attr": {"padding": {"s": "U0FNRQ=="}, "dilations": {"list": {"i": ["1", "1", "1", "1"]}}, "T": {"type": "DT_FLOAT"}, "data_format": {"s": "TkhXQw=="}, "strides": {"list": {"i": ["1", "1", "1", "1"]}}, "explicit_paddings": {"list": {}}}}, {"name": "StatefulPartitionedCall/model_8/xception/block7_sepconv2_act/Relu", "op": "_FusedConv2D", "input": ["StatefulPartitionedCall/model_8/xception/block7_sepconv1/separable_conv2d/depthwise", "StatefulPartitionedCall/model_8/xception/block7_sepconv1/separable_conv2d_weights", "StatefulPartitionedCall/model_8/xception/block7_sepconv1/separable_conv2d_bn_offset"], "device": "/device:CPU:0", "attr": {"dilations": {"list": {"i": ["1", "1", "1", "1"]}}, "T": {"type": "DT_FLOAT"}, "data_format": {"s": "TkhXQw=="}, "strides": {"list": {"i": ["1", "1", "1", "1"]}}, "explicit_paddings": {"list": {}}, "use_cudnn_on_gpu": {"b": true}, "num_args": {"i": "1"}, "epsilon": {"f": 0.0}, "padding": {"s": "VkFMSUQ="}, "fused_ops": {"list": {"s": ["Qmlhc0FkZA==", "UmVsdQ=="]}}}}, {"name": "StatefulPartitionedCall/model_8/xception/block7_sepconv2/separable_conv2d/depthwise", "op": "DepthwiseConv2dNative", "input": ["StatefulPartitionedCall/model_8/xception/block7_sepconv2_act/Relu", "StatefulPartitionedCall/model_8/xception/block7_sepconv2/separable_conv2d/ReadVariableOp"], "attr": {"padding": {"s": "U0FNRQ=="}, "dilations": {"list": {"i": ["1", "1", "1", "1"]}}, "T": {"type": "DT_FLOAT"}, "strides": {"list": {"i": ["1", "1", "1", "1"]}}, "data_format": {"s": "TkhXQw=="}, "explicit_paddings": {"list": {}}}}, {"name": "StatefulPartitionedCall/model_8/xception/block7_sepconv3_act/Relu", "op": "_FusedConv2D", "input": ["StatefulPartitionedCall/model_8/xception/block7_sepconv2/separable_conv2d/depthwise", "StatefulPartitionedCall/model_8/xception/block7_sepconv2/separable_conv2d_weights", "StatefulPartitionedCall/model_8/xception/block7_sepconv2/separable_conv2d_bn_offset"], "device": "/device:CPU:0", "attr": {"dilations": {"list": {"i": ["1", "1", "1", "1"]}}, "T": {"type": "DT_FLOAT"}, "strides": {"list": {"i": ["1", "1", "1", "1"]}}, "data_format": {"s": "TkhXQw=="}, "use_cudnn_on_gpu": {"b": true}, "explicit_paddings": {"list": {}}, "num_args": {"i": "1"}, "epsilon": {"f": 0.0}, "padding": {"s": "VkFMSUQ="}, "fused_ops": {"list": {"s": ["Qmlhc0FkZA==", "UmVsdQ=="]}}}}, {"name": "StatefulPartitionedCall/model_8/xception/block7_sepconv3/separable_conv2d/depthwise", "op": "DepthwiseConv2dNative", "input": ["StatefulPartitionedCall/model_8/xception/block7_sepconv3_act/Relu", "StatefulPartitionedCall/model_8/xception/block7_sepconv3/separable_conv2d/ReadVariableOp"], "attr": {"dilations": {"list": {"i": ["1", "1", "1", "1"]}}, "T": {"type": "DT_FLOAT"}, "data_format": {"s": "TkhXQw=="}, "strides": {"list": {"i": ["1", "1", "1", "1"]}}, "explicit_paddings": {"list": {}}, "padding": {"s": "U0FNRQ=="}}}, {"name": "StatefulPartitionedCall/model_8/xception/block7_sepconv3_bn/FusedBatchNormV3", "op": "_FusedConv2D", "input": ["StatefulPartitionedCall/model_8/xception/block7_sepconv3/separable_conv2d/depthwise", "StatefulPartitionedCall/model_8/xception/block7_sepconv3/separable_conv2d_weights", "StatefulPartitionedCall/model_8/xception/block7_sepconv3/separable_conv2d_bn_offset"], "device": "/device:CPU:0", "attr": {"epsilon": {"f": 0.0}, "padding": {"s": "VkFMSUQ="}, "fused_ops": {"list": {"s": ["Qmlhc0FkZA=="]}}, "dilations": {"list": {"i": ["1", "1", "1", "1"]}}, "T": {"type": "DT_FLOAT"}, "data_format": {"s": "TkhXQw=="}, "strides": {"list": {"i": ["1", "1", "1", "1"]}}, "explicit_paddings": {"list": {}}, "use_cudnn_on_gpu": {"b": true}, "num_args": {"i": "1"}}}, {"name": "StatefulPartitionedCall/model_8/xception/add_113/add", "op": "AddV2", "input": ["StatefulPartitionedCall/model_8/xception/block7_sepconv3_bn/FusedBatchNormV3", "StatefulPartitionedCall/model_8/xception/add_112/add"], "attr": {"T": {"type": "DT_FLOAT"}}}, {"name": "StatefulPartitionedCall/model_8/xception/block8_sepconv1_act/Relu", "op": "Relu", "input": ["StatefulPartitionedCall/model_8/xception/add_113/add"], "attr": {"T": {"type": "DT_FLOAT"}}}, {"name": "StatefulPartitionedCall/model_8/xception/block8_sepconv1/separable_conv2d/depthwise", "op": "DepthwiseConv2dNative", "input": ["StatefulPartitionedCall/model_8/xception/block8_sepconv1_act/Relu", "StatefulPartitionedCall/model_8/xception/block8_sepconv1/separable_conv2d/ReadVariableOp"], "attr": {"dilations": {"list": {"i": ["1", "1", "1", "1"]}}, "T": {"type": "DT_FLOAT"}, "data_format": {"s": "TkhXQw=="}, "strides": {"list": {"i": ["1", "1", "1", "1"]}}, "explicit_paddings": {"list": {}}, "padding": {"s": "U0FNRQ=="}}}, {"name": "StatefulPartitionedCall/model_8/xception/block8_sepconv2_act/Relu", "op": "_FusedConv2D", "input": ["StatefulPartitionedCall/model_8/xception/block8_sepconv1/separable_conv2d/depthwise", "StatefulPartitionedCall/model_8/xception/block8_sepconv1/separable_conv2d_weights", "StatefulPartitionedCall/model_8/xception/block8_sepconv1/separable_conv2d_bn_offset"], "device": "/device:CPU:0", "attr": {"dilations": {"list": {"i": ["1", "1", "1", "1"]}}, "T": {"type": "DT_FLOAT"}, "strides": {"list": {"i": ["1", "1", "1", "1"]}}, "data_format": {"s": "TkhXQw=="}, "use_cudnn_on_gpu": {"b": true}, "explicit_paddings": {"list": {}}, "num_args": {"i": "1"}, "epsilon": {"f": 0.0}, "padding": {"s": "VkFMSUQ="}, "fused_ops": {"list": {"s": ["Qmlhc0FkZA==", "UmVsdQ=="]}}}}, {"name": "StatefulPartitionedCall/model_8/xception/block8_sepconv2/separable_conv2d/depthwise", "op": "DepthwiseConv2dNative", "input": ["StatefulPartitionedCall/model_8/xception/block8_sepconv2_act/Relu", "StatefulPartitionedCall/model_8/xception/block8_sepconv2/separable_conv2d/ReadVariableOp"], "attr": {"dilations": {"list": {"i": ["1", "1", "1", "1"]}}, "T": {"type": "DT_FLOAT"}, "strides": {"list": {"i": ["1", "1", "1", "1"]}}, "data_format": {"s": "TkhXQw=="}, "explicit_paddings": {"list": {}}, "padding": {"s": "U0FNRQ=="}}}, {"name": "StatefulPartitionedCall/model_8/xception/block8_sepconv3_act/Relu", "op": "_FusedConv2D", "input": ["StatefulPartitionedCall/model_8/xception/block8_sepconv2/separable_conv2d/depthwise", "StatefulPartitionedCall/model_8/xception/block8_sepconv2/separable_conv2d_weights", "StatefulPartitionedCall/model_8/xception/block8_sepconv2/separable_conv2d_bn_offset"], "device": "/device:CPU:0", "attr": {"T": {"type": "DT_FLOAT"}, "strides": {"list": {"i": ["1", "1", "1", "1"]}}, "data_format": {"s": "TkhXQw=="}, "use_cudnn_on_gpu": {"b": true}, "explicit_paddings": {"list": {}}, "num_args": {"i": "1"}, "epsilon": {"f": 0.0}, "padding": {"s": "VkFMSUQ="}, "fused_ops": {"list": {"s": ["Qmlhc0FkZA==", "UmVsdQ=="]}}, "dilations": {"list": {"i": ["1", "1", "1", "1"]}}}}, {"name": "StatefulPartitionedCall/model_8/xception/block8_sepconv3/separable_conv2d/depthwise", "op": "DepthwiseConv2dNative", "input": ["StatefulPartitionedCall/model_8/xception/block8_sepconv3_act/Relu", "StatefulPartitionedCall/model_8/xception/block8_sepconv3/separable_conv2d/ReadVariableOp"], "attr": {"data_format": {"s": "TkhXQw=="}, "strides": {"list": {"i": ["1", "1", "1", "1"]}}, "explicit_paddings": {"list": {}}, "padding": {"s": "U0FNRQ=="}, "dilations": {"list": {"i": ["1", "1", "1", "1"]}}, "T": {"type": "DT_FLOAT"}}}, {"name": "StatefulPartitionedCall/model_8/xception/block8_sepconv3_bn/FusedBatchNormV3", "op": "_FusedConv2D", "input": ["StatefulPartitionedCall/model_8/xception/block8_sepconv3/separable_conv2d/depthwise", "StatefulPartitionedCall/model_8/xception/block8_sepconv3/separable_conv2d_weights", "StatefulPartitionedCall/model_8/xception/block8_sepconv3/separable_conv2d_bn_offset"], "device": "/device:CPU:0", "attr": {"dilations": {"list": {"i": ["1", "1", "1", "1"]}}, "T": {"type": "DT_FLOAT"}, "strides": {"list": {"i": ["1", "1", "1", "1"]}}, "data_format": {"s": "TkhXQw=="}, "explicit_paddings": {"list": {}}, "use_cudnn_on_gpu": {"b": true}, "num_args": {"i": "1"}, "epsilon": {"f": 0.0}, "padding": {"s": "VkFMSUQ="}, "fused_ops": {"list": {"s": ["Qmlhc0FkZA=="]}}}}, {"name": "StatefulPartitionedCall/model_8/xception/add_114/add", "op": "AddV2", "input": ["StatefulPartitionedCall/model_8/xception/block8_sepconv3_bn/FusedBatchNormV3", "StatefulPartitionedCall/model_8/xception/add_113/add"], "attr": {"T": {"type": "DT_FLOAT"}}}, {"name": "StatefulPartitionedCall/model_8/xception/block9_sepconv1_act/Relu", "op": "Relu", "input": ["StatefulPartitionedCall/model_8/xception/add_114/add"], "attr": {"T": {"type": "DT_FLOAT"}}}, {"name": "StatefulPartitionedCall/model_8/xception/block9_sepconv1/separable_conv2d/depthwise", "op": "DepthwiseConv2dNative", "input": ["StatefulPartitionedCall/model_8/xception/block9_sepconv1_act/Relu", "StatefulPartitionedCall/model_8/xception/block9_sepconv1/separable_conv2d/ReadVariableOp"], "attr": {"dilations": {"list": {"i": ["1", "1", "1", "1"]}}, "T": {"type": "DT_FLOAT"}, "data_format": {"s": "TkhXQw=="}, "strides": {"list": {"i": ["1", "1", "1", "1"]}}, "explicit_paddings": {"list": {}}, "padding": {"s": "U0FNRQ=="}}}, {"name": "StatefulPartitionedCall/model_8/xception/block9_sepconv2_act/Relu", "op": "_FusedConv2D", "input": ["StatefulPartitionedCall/model_8/xception/block9_sepconv1/separable_conv2d/depthwise", "StatefulPartitionedCall/model_8/xception/block9_sepconv1/separable_conv2d_weights", "StatefulPartitionedCall/model_8/xception/block9_sepconv1/separable_conv2d_bn_offset"], "device": "/device:CPU:0", "attr": {"epsilon": {"f": 0.0}, "padding": {"s": "VkFMSUQ="}, "fused_ops": {"list": {"s": ["Qmlhc0FkZA==", "UmVsdQ=="]}}, "dilations": {"list": {"i": ["1", "1", "1", "1"]}}, "T": {"type": "DT_FLOAT"}, "data_format": {"s": "TkhXQw=="}, "strides": {"list": {"i": ["1", "1", "1", "1"]}}, "explicit_paddings": {"list": {}}, "use_cudnn_on_gpu": {"b": true}, "num_args": {"i": "1"}}}, {"name": "StatefulPartitionedCall/model_8/xception/block9_sepconv2/separable_conv2d/depthwise", "op": "DepthwiseConv2dNative", "input": ["StatefulPartitionedCall/model_8/xception/block9_sepconv2_act/Relu", "StatefulPartitionedCall/model_8/xception/block9_sepconv2/separable_conv2d/ReadVariableOp"], "attr": {"dilations": {"list": {"i": ["1", "1", "1", "1"]}}, "T": {"type": "DT_FLOAT"}, "data_format": {"s": "TkhXQw=="}, "strides": {"list": {"i": ["1", "1", "1", "1"]}}, "explicit_paddings": {"list": {}}, "padding": {"s": "U0FNRQ=="}}}, {"name": "StatefulPartitionedCall/model_8/xception/block9_sepconv3_act/Relu", "op": "_FusedConv2D", "input": ["StatefulPartitionedCall/model_8/xception/block9_sepconv2/separable_conv2d/depthwise", "StatefulPartitionedCall/model_8/xception/block9_sepconv2/separable_conv2d_weights", "StatefulPartitionedCall/model_8/xception/block9_sepconv2/separable_conv2d_bn_offset"], "device": "/device:CPU:0", "attr": {"dilations": {"list": {"i": ["1", "1", "1", "1"]}}, "T": {"type": "DT_FLOAT"}, "data_format": {"s": "TkhXQw=="}, "strides": {"list": {"i": ["1", "1", "1", "1"]}}, "explicit_paddings": {"list": {}}, "use_cudnn_on_gpu": {"b": true}, "num_args": {"i": "1"}, "epsilon": {"f": 0.0}, "padding": {"s": "VkFMSUQ="}, "fused_ops": {"list": {"s": ["Qmlhc0FkZA==", "UmVsdQ=="]}}}}, {"name": "StatefulPartitionedCall/model_8/xception/block9_sepconv3/separable_conv2d/depthwise", "op": "DepthwiseConv2dNative", "input": ["StatefulPartitionedCall/model_8/xception/block9_sepconv3_act/Relu", "StatefulPartitionedCall/model_8/xception/block9_sepconv3/separable_conv2d/ReadVariableOp"], "attr": {"dilations": {"list": {"i": ["1", "1", "1", "1"]}}, "T": {"type": "DT_FLOAT"}, "strides": {"list": {"i": ["1", "1", "1", "1"]}}, "data_format": {"s": "TkhXQw=="}, "explicit_paddings": {"list": {}}, "padding": {"s": "U0FNRQ=="}}}, {"name": "StatefulPartitionedCall/model_8/xception/block9_sepconv3_bn/FusedBatchNormV3", "op": "_FusedConv2D", "input": ["StatefulPartitionedCall/model_8/xception/block9_sepconv3/separable_conv2d/depthwise", "StatefulPartitionedCall/model_8/xception/block9_sepconv3/separable_conv2d_weights", "StatefulPartitionedCall/model_8/xception/block9_sepconv3/separable_conv2d_bn_offset"], "device": "/device:CPU:0", "attr": {"epsilon": {"f": 0.0}, "padding": {"s": "VkFMSUQ="}, "fused_ops": {"list": {"s": ["Qmlhc0FkZA=="]}}, "dilations": {"list": {"i": ["1", "1", "1", "1"]}}, "T": {"type": "DT_FLOAT"}, "strides": {"list": {"i": ["1", "1", "1", "1"]}}, "data_format": {"s": "TkhXQw=="}, "use_cudnn_on_gpu": {"b": true}, "explicit_paddings": {"list": {}}, "num_args": {"i": "1"}}}, {"name": "StatefulPartitionedCall/model_8/xception/add_115/add", "op": "AddV2", "input": ["StatefulPartitionedCall/model_8/xception/block9_sepconv3_bn/FusedBatchNormV3", "StatefulPartitionedCall/model_8/xception/add_114/add"], "attr": {"T": {"type": "DT_FLOAT"}}}, {"name": "StatefulPartitionedCall/model_8/xception/block10_sepconv1_act/Relu", "op": "Relu", "input": ["StatefulPartitionedCall/model_8/xception/add_115/add"], "attr": {"T": {"type": "DT_FLOAT"}}}, {"name": "StatefulPartitionedCall/model_8/xception/block10_sepconv1/separable_conv2d/depthwise", "op": "DepthwiseConv2dNative", "input": ["StatefulPartitionedCall/model_8/xception/block10_sepconv1_act/Relu", "StatefulPartitionedCall/model_8/xception/block10_sepconv1/separable_conv2d/ReadVariableOp"], "attr": {"padding": {"s": "U0FNRQ=="}, "dilations": {"list": {"i": ["1", "1", "1", "1"]}}, "T": {"type": "DT_FLOAT"}, "strides": {"list": {"i": ["1", "1", "1", "1"]}}, "data_format": {"s": "TkhXQw=="}, "explicit_paddings": {"list": {}}}}, {"name": "StatefulPartitionedCall/model_8/xception/block10_sepconv2_act/Relu", "op": "_FusedConv2D", "input": ["StatefulPartitionedCall/model_8/xception/block10_sepconv1/separable_conv2d/depthwise", "StatefulPartitionedCall/model_8/xception/block10_sepconv1/separable_conv2d_weights", "StatefulPartitionedCall/model_8/xception/block10_sepconv1/separable_conv2d_bn_offset"], "device": "/device:CPU:0", "attr": {"epsilon": {"f": 0.0}, "padding": {"s": "VkFMSUQ="}, "fused_ops": {"list": {"s": ["Qmlhc0FkZA==", "UmVsdQ=="]}}, "dilations": {"list": {"i": ["1", "1", "1", "1"]}}, "T": {"type": "DT_FLOAT"}, "strides": {"list": {"i": ["1", "1", "1", "1"]}}, "data_format": {"s": "TkhXQw=="}, "use_cudnn_on_gpu": {"b": true}, "explicit_paddings": {"list": {}}, "num_args": {"i": "1"}}}, {"name": "StatefulPartitionedCall/model_8/xception/block10_sepconv2/separable_conv2d/depthwise", "op": "DepthwiseConv2dNative", "input": ["StatefulPartitionedCall/model_8/xception/block10_sepconv2_act/Relu", "StatefulPartitionedCall/model_8/xception/block10_sepconv2/separable_conv2d/ReadVariableOp"], "attr": {"padding": {"s": "U0FNRQ=="}, "dilations": {"list": {"i": ["1", "1", "1", "1"]}}, "T": {"type": "DT_FLOAT"}, "strides": {"list": {"i": ["1", "1", "1", "1"]}}, "data_format": {"s": "TkhXQw=="}, "explicit_paddings": {"list": {}}}}, {"name": "StatefulPartitionedCall/model_8/xception/block10_sepconv3_act/Relu", "op": "_FusedConv2D", "input": ["StatefulPartitionedCall/model_8/xception/block10_sepconv2/separable_conv2d/depthwise", "StatefulPartitionedCall/model_8/xception/block10_sepconv2/separable_conv2d_weights", "StatefulPartitionedCall/model_8/xception/block10_sepconv2/separable_conv2d_bn_offset"], "device": "/device:CPU:0", "attr": {"epsilon": {"f": 0.0}, "padding": {"s": "VkFMSUQ="}, "fused_ops": {"list": {"s": ["Qmlhc0FkZA==", "UmVsdQ=="]}}, "dilations": {"list": {"i": ["1", "1", "1", "1"]}}, "T": {"type": "DT_FLOAT"}, "data_format": {"s": "TkhXQw=="}, "strides": {"list": {"i": ["1", "1", "1", "1"]}}, "explicit_paddings": {"list": {}}, "use_cudnn_on_gpu": {"b": true}, "num_args": {"i": "1"}}}, {"name": "StatefulPartitionedCall/model_8/xception/block10_sepconv3/separable_conv2d/depthwise", "op": "DepthwiseConv2dNative", "input": ["StatefulPartitionedCall/model_8/xception/block10_sepconv3_act/Relu", "StatefulPartitionedCall/model_8/xception/block10_sepconv3/separable_conv2d/ReadVariableOp"], "attr": {"T": {"type": "DT_FLOAT"}, "strides": {"list": {"i": ["1", "1", "1", "1"]}}, "data_format": {"s": "TkhXQw=="}, "explicit_paddings": {"list": {}}, "padding": {"s": "U0FNRQ=="}, "dilations": {"list": {"i": ["1", "1", "1", "1"]}}}}, {"name": "StatefulPartitionedCall/model_8/xception/block10_sepconv3_bn/FusedBatchNormV3", "op": "_FusedConv2D", "input": ["StatefulPartitionedCall/model_8/xception/block10_sepconv3/separable_conv2d/depthwise", "StatefulPartitionedCall/model_8/xception/block10_sepconv3/separable_conv2d_weights", "StatefulPartitionedCall/model_8/xception/block10_sepconv3/separable_conv2d_bn_offset"], "device": "/device:CPU:0", "attr": {"dilations": {"list": {"i": ["1", "1", "1", "1"]}}, "T": {"type": "DT_FLOAT"}, "data_format": {"s": "TkhXQw=="}, "strides": {"list": {"i": ["1", "1", "1", "1"]}}, "explicit_paddings": {"list": {}}, "use_cudnn_on_gpu": {"b": true}, "num_args": {"i": "1"}, "epsilon": {"f": 0.0}, "padding": {"s": "VkFMSUQ="}, "fused_ops": {"list": {"s": ["Qmlhc0FkZA=="]}}}}, {"name": "StatefulPartitionedCall/model_8/xception/add_116/add", "op": "AddV2", "input": ["StatefulPartitionedCall/model_8/xception/block10_sepconv3_bn/FusedBatchNormV3", "StatefulPartitionedCall/model_8/xception/add_115/add"], "attr": {"T": {"type": "DT_FLOAT"}}}, {"name": "StatefulPartitionedCall/model_8/xception/block11_sepconv1_act/Relu", "op": "Relu", "input": ["StatefulPartitionedCall/model_8/xception/add_116/add"], "attr": {"T": {"type": "DT_FLOAT"}}}, {"name": "StatefulPartitionedCall/model_8/xception/block11_sepconv1/separable_conv2d/depthwise", "op": "DepthwiseConv2dNative", "input": ["StatefulPartitionedCall/model_8/xception/block11_sepconv1_act/Relu", "StatefulPartitionedCall/model_8/xception/block11_sepconv1/separable_conv2d/ReadVariableOp"], "attr": {"strides": {"list": {"i": ["1", "1", "1", "1"]}}, "data_format": {"s": "TkhXQw=="}, "explicit_paddings": {"list": {}}, "padding": {"s": "U0FNRQ=="}, "dilations": {"list": {"i": ["1", "1", "1", "1"]}}, "T": {"type": "DT_FLOAT"}}}, {"name": "StatefulPartitionedCall/model_8/xception/block11_sepconv2_act/Relu", "op": "_FusedConv2D", "input": ["StatefulPartitionedCall/model_8/xception/block11_sepconv1/separable_conv2d/depthwise", "StatefulPartitionedCall/model_8/xception/block11_sepconv1/separable_conv2d_weights", "StatefulPartitionedCall/model_8/xception/block11_sepconv1/separable_conv2d_bn_offset"], "device": "/device:CPU:0", "attr": {"dilations": {"list": {"i": ["1", "1", "1", "1"]}}, "T": {"type": "DT_FLOAT"}, "strides": {"list": {"i": ["1", "1", "1", "1"]}}, "data_format": {"s": "TkhXQw=="}, "use_cudnn_on_gpu": {"b": true}, "explicit_paddings": {"list": {}}, "num_args": {"i": "1"}, "epsilon": {"f": 0.0}, "padding": {"s": "VkFMSUQ="}, "fused_ops": {"list": {"s": ["Qmlhc0FkZA==", "UmVsdQ=="]}}}}, {"name": "StatefulPartitionedCall/model_8/xception/block11_sepconv2/separable_conv2d/depthwise", "op": "DepthwiseConv2dNative", "input": ["StatefulPartitionedCall/model_8/xception/block11_sepconv2_act/Relu", "StatefulPartitionedCall/model_8/xception/block11_sepconv2/separable_conv2d/ReadVariableOp"], "attr": {"dilations": {"list": {"i": ["1", "1", "1", "1"]}}, "T": {"type": "DT_FLOAT"}, "strides": {"list": {"i": ["1", "1", "1", "1"]}}, "data_format": {"s": "TkhXQw=="}, "explicit_paddings": {"list": {}}, "padding": {"s": "U0FNRQ=="}}}, {"name": "StatefulPartitionedCall/model_8/xception/block11_sepconv3_act/Relu", "op": "_FusedConv2D", "input": ["StatefulPartitionedCall/model_8/xception/block11_sepconv2/separable_conv2d/depthwise", "StatefulPartitionedCall/model_8/xception/block11_sepconv2/separable_conv2d_weights", "StatefulPartitionedCall/model_8/xception/block11_sepconv2/separable_conv2d_bn_offset"], "device": "/device:CPU:0", "attr": {"dilations": {"list": {"i": ["1", "1", "1", "1"]}}, "T": {"type": "DT_FLOAT"}, "strides": {"list": {"i": ["1", "1", "1", "1"]}}, "data_format": {"s": "TkhXQw=="}, "explicit_paddings": {"list": {}}, "use_cudnn_on_gpu": {"b": true}, "num_args": {"i": "1"}, "epsilon": {"f": 0.0}, "padding": {"s": "VkFMSUQ="}, "fused_ops": {"list": {"s": ["Qmlhc0FkZA==", "UmVsdQ=="]}}}}, {"name": "StatefulPartitionedCall/model_8/xception/block11_sepconv3/separable_conv2d/depthwise", "op": "DepthwiseConv2dNative", "input": ["StatefulPartitionedCall/model_8/xception/block11_sepconv3_act/Relu", "StatefulPartitionedCall/model_8/xception/block11_sepconv3/separable_conv2d/ReadVariableOp"], "attr": {"explicit_paddings": {"list": {}}, "padding": {"s": "U0FNRQ=="}, "dilations": {"list": {"i": ["1", "1", "1", "1"]}}, "T": {"type": "DT_FLOAT"}, "strides": {"list": {"i": ["1", "1", "1", "1"]}}, "data_format": {"s": "TkhXQw=="}}}, {"name": "StatefulPartitionedCall/model_8/xception/block11_sepconv3_bn/FusedBatchNormV3", "op": "_FusedConv2D", "input": ["StatefulPartitionedCall/model_8/xception/block11_sepconv3/separable_conv2d/depthwise", "StatefulPartitionedCall/model_8/xception/block11_sepconv3/separable_conv2d_weights", "StatefulPartitionedCall/model_8/xception/block11_sepconv3/separable_conv2d_bn_offset"], "device": "/device:CPU:0", "attr": {"data_format": {"s": "TkhXQw=="}, "strides": {"list": {"i": ["1", "1", "1", "1"]}}, "explicit_paddings": {"list": {}}, "use_cudnn_on_gpu": {"b": true}, "num_args": {"i": "1"}, "epsilon": {"f": 0.0}, "padding": {"s": "VkFMSUQ="}, "fused_ops": {"list": {"s": ["Qmlhc0FkZA=="]}}, "dilations": {"list": {"i": ["1", "1", "1", "1"]}}, "T": {"type": "DT_FLOAT"}}}, {"name": "StatefulPartitionedCall/model_8/xception/add_117/add", "op": "AddV2", "input": ["StatefulPartitionedCall/model_8/xception/block11_sepconv3_bn/FusedBatchNormV3", "StatefulPartitionedCall/model_8/xception/add_116/add"], "attr": {"T": {"type": "DT_FLOAT"}}}, {"name": "StatefulPartitionedCall/model_8/xception/block12_sepconv1_act/Relu", "op": "Relu", "input": ["StatefulPartitionedCall/model_8/xception/add_117/add"], "attr": {"T": {"type": "DT_FLOAT"}}}, {"name": "StatefulPartitionedCall/model_8/xception/block12_sepconv1/separable_conv2d/depthwise", "op": "DepthwiseConv2dNative", "input": ["StatefulPartitionedCall/model_8/xception/block12_sepconv1_act/Relu", "StatefulPartitionedCall/model_8/xception/block12_sepconv1/separable_conv2d/ReadVariableOp"], "attr": {"padding": {"s": "U0FNRQ=="}, "dilations": {"list": {"i": ["1", "1", "1", "1"]}}, "T": {"type": "DT_FLOAT"}, "strides": {"list": {"i": ["1", "1", "1", "1"]}}, "data_format": {"s": "TkhXQw=="}, "explicit_paddings": {"list": {}}}}, {"name": "StatefulPartitionedCall/model_8/xception/block12_sepconv2_act/Relu", "op": "_FusedConv2D", "input": ["StatefulPartitionedCall/model_8/xception/block12_sepconv1/separable_conv2d/depthwise", "StatefulPartitionedCall/model_8/xception/block12_sepconv1/separable_conv2d_weights", "StatefulPartitionedCall/model_8/xception/block12_sepconv1/separable_conv2d_bn_offset"], "device": "/device:CPU:0", "attr": {"epsilon": {"f": 0.0}, "padding": {"s": "VkFMSUQ="}, "fused_ops": {"list": {"s": ["Qmlhc0FkZA==", "UmVsdQ=="]}}, "dilations": {"list": {"i": ["1", "1", "1", "1"]}}, "T": {"type": "DT_FLOAT"}, "data_format": {"s": "TkhXQw=="}, "strides": {"list": {"i": ["1", "1", "1", "1"]}}, "use_cudnn_on_gpu": {"b": true}, "explicit_paddings": {"list": {}}, "num_args": {"i": "1"}}}, {"name": "StatefulPartitionedCall/model_8/xception/block12_sepconv2/separable_conv2d/depthwise", "op": "DepthwiseConv2dNative", "input": ["StatefulPartitionedCall/model_8/xception/block12_sepconv2_act/Relu", "StatefulPartitionedCall/model_8/xception/block12_sepconv2/separable_conv2d/ReadVariableOp"], "attr": {"dilations": {"list": {"i": ["1", "1", "1", "1"]}}, "T": {"type": "DT_FLOAT"}, "strides": {"list": {"i": ["1", "1", "1", "1"]}}, "data_format": {"s": "TkhXQw=="}, "explicit_paddings": {"list": {}}, "padding": {"s": "U0FNRQ=="}}}, {"name": "StatefulPartitionedCall/model_8/xception/block12_sepconv3_act/Relu", "op": "_FusedConv2D", "input": ["StatefulPartitionedCall/model_8/xception/block12_sepconv2/separable_conv2d/depthwise", "StatefulPartitionedCall/model_8/xception/block12_sepconv2/separable_conv2d_weights", "StatefulPartitionedCall/model_8/xception/block12_sepconv2/separable_conv2d_bn_offset"], "device": "/device:CPU:0", "attr": {"dilations": {"list": {"i": ["1", "1", "1", "1"]}}, "T": {"type": "DT_FLOAT"}, "data_format": {"s": "TkhXQw=="}, "strides": {"list": {"i": ["1", "1", "1", "1"]}}, "use_cudnn_on_gpu": {"b": true}, "explicit_paddings": {"list": {}}, "num_args": {"i": "1"}, "epsilon": {"f": 0.0}, "padding": {"s": "VkFMSUQ="}, "fused_ops": {"list": {"s": ["Qmlhc0FkZA==", "UmVsdQ=="]}}}}, {"name": "StatefulPartitionedCall/model_8/xception/block12_sepconv3/separable_conv2d/depthwise", "op": "DepthwiseConv2dNative", "input": ["StatefulPartitionedCall/model_8/xception/block12_sepconv3_act/Relu", "StatefulPartitionedCall/model_8/xception/block12_sepconv3/separable_conv2d/ReadVariableOp"], "attr": {"dilations": {"list": {"i": ["1", "1", "1", "1"]}}, "T": {"type": "DT_FLOAT"}, "data_format": {"s": "TkhXQw=="}, "strides": {"list": {"i": ["1", "1", "1", "1"]}}, "explicit_paddings": {"list": {}}, "padding": {"s": "U0FNRQ=="}}}, {"name": "StatefulPartitionedCall/model_8/xception/block12_sepconv3_bn/FusedBatchNormV3", "op": "_FusedConv2D", "input": ["StatefulPartitionedCall/model_8/xception/block12_sepconv3/separable_conv2d/depthwise", "StatefulPartitionedCall/model_8/xception/block12_sepconv3/separable_conv2d_weights", "StatefulPartitionedCall/model_8/xception/block12_sepconv3/separable_conv2d_bn_offset"], "device": "/device:CPU:0", "attr": {"dilations": {"list": {"i": ["1", "1", "1", "1"]}}, "T": {"type": "DT_FLOAT"}, "data_format": {"s": "TkhXQw=="}, "strides": {"list": {"i": ["1", "1", "1", "1"]}}, "explicit_paddings": {"list": {}}, "use_cudnn_on_gpu": {"b": true}, "num_args": {"i": "1"}, "epsilon": {"f": 0.0}, "padding": {"s": "VkFMSUQ="}, "fused_ops": {"list": {"s": ["Qmlhc0FkZA=="]}}}}, {"name": "StatefulPartitionedCall/model_8/xception/add_118/add", "op": "AddV2", "input": ["StatefulPartitionedCall/model_8/xception/block12_sepconv3_bn/FusedBatchNormV3", "StatefulPartitionedCall/model_8/xception/add_117/add"], "attr": {"T": {"type": "DT_FLOAT"}}}, {"name": "StatefulPartitionedCall/model_8/xception/block13_sepconv1_act/Relu", "op": "Relu", "input": ["StatefulPartitionedCall/model_8/xception/add_118/add"], "attr": {"T": {"type": "DT_FLOAT"}}}, {"name": "StatefulPartitionedCall/model_8/xception/batch_normalization_39/FusedBatchNormV3", "op": "_FusedConv2D", "input": ["StatefulPartitionedCall/model_8/xception/add_118/add", "StatefulPartitionedCall/model_8/xception/conv2d_39/Conv2D_weights", "StatefulPartitionedCall/model_8/xception/conv2d_39/Conv2D_bn_offset"], "device": "/device:CPU:0", "attr": {"data_format": {"s": "TkhXQw=="}, "strides": {"list": {"i": ["1", "2", "2", "1"]}}, "explicit_paddings": {"list": {}}, "use_cudnn_on_gpu": {"b": true}, "num_args": {"i": "1"}, "epsilon": {"f": 0.0}, "padding": {"s": "U0FNRQ=="}, "fused_ops": {"list": {"s": ["Qmlhc0FkZA=="]}}, "dilations": {"list": {"i": ["1", "1", "1", "1"]}}, "T": {"type": "DT_FLOAT"}}}, {"name": "StatefulPartitionedCall/model_8/xception/block13_sepconv1/separable_conv2d/depthwise", "op": "DepthwiseConv2dNative", "input": ["StatefulPartitionedCall/model_8/xception/block13_sepconv1_act/Relu", "StatefulPartitionedCall/model_8/xception/block13_sepconv1/separable_conv2d/ReadVariableOp"], "attr": {"strides": {"list": {"i": ["1", "1", "1", "1"]}}, "data_format": {"s": "TkhXQw=="}, "explicit_paddings": {"list": {}}, "padding": {"s": "U0FNRQ=="}, "dilations": {"list": {"i": ["1", "1", "1", "1"]}}, "T": {"type": "DT_FLOAT"}}}, {"name": "StatefulPartitionedCall/model_8/xception/block13_sepconv2_act/Relu", "op": "_FusedConv2D", "input": ["StatefulPartitionedCall/model_8/xception/block13_sepconv1/separable_conv2d/depthwise", "StatefulPartitionedCall/model_8/xception/block13_sepconv1/separable_conv2d_weights", "StatefulPartitionedCall/model_8/xception/block13_sepconv1/separable_conv2d_bn_offset"], "device": "/device:CPU:0", "attr": {"fused_ops": {"list": {"s": ["Qmlhc0FkZA==", "UmVsdQ=="]}}, "dilations": {"list": {"i": ["1", "1", "1", "1"]}}, "T": {"type": "DT_FLOAT"}, "strides": {"list": {"i": ["1", "1", "1", "1"]}}, "data_format": {"s": "TkhXQw=="}, "use_cudnn_on_gpu": {"b": true}, "explicit_paddings": {"list": {}}, "num_args": {"i": "1"}, "epsilon": {"f": 0.0}, "padding": {"s": "VkFMSUQ="}}}, {"name": "StatefulPartitionedCall/model_8/xception/block13_sepconv2/separable_conv2d/depthwise", "op": "DepthwiseConv2dNative", "input": ["StatefulPartitionedCall/model_8/xception/block13_sepconv2_act/Relu", "StatefulPartitionedCall/model_8/xception/block13_sepconv2/separable_conv2d/ReadVariableOp"], "attr": {"padding": {"s": "U0FNRQ=="}, "dilations": {"list": {"i": ["1", "1", "1", "1"]}}, "T": {"type": "DT_FLOAT"}, "data_format": {"s": "TkhXQw=="}, "strides": {"list": {"i": ["1", "1", "1", "1"]}}, "explicit_paddings": {"list": {}}}}, {"name": "StatefulPartitionedCall/model_8/xception/block13_sepconv2_bn/FusedBatchNormV3", "op": "_FusedConv2D", "input": ["StatefulPartitionedCall/model_8/xception/block13_sepconv2/separable_conv2d/depthwise", "StatefulPartitionedCall/model_8/xception/block13_sepconv2/separable_conv2d_weights", "StatefulPartitionedCall/model_8/xception/block13_sepconv2/separable_conv2d_bn_offset"], "device": "/device:CPU:0", "attr": {"strides": {"list": {"i": ["1", "1", "1", "1"]}}, "data_format": {"s": "TkhXQw=="}, "explicit_paddings": {"list": {}}, "use_cudnn_on_gpu": {"b": true}, "num_args": {"i": "1"}, "epsilon": {"f": 0.0}, "padding": {"s": "VkFMSUQ="}, "fused_ops": {"list": {"s": ["Qmlhc0FkZA=="]}}, "dilations": {"list": {"i": ["1", "1", "1", "1"]}}, "T": {"type": "DT_FLOAT"}}}, {"name": "StatefulPartitionedCall/model_8/xception/block13_pool/MaxPool", "op": "MaxPool", "input": ["StatefulPartitionedCall/model_8/xception/block13_sepconv2_bn/FusedBatchNormV3"], "attr": {"explicit_paddings": {"list": {}}, "ksize": {"list": {"i": ["1", "3", "3", "1"]}}, "padding": {"s": "U0FNRQ=="}, "T": {"type": "DT_FLOAT"}, "strides": {"list": {"i": ["1", "2", "2", "1"]}}, "data_format": {"s": "TkhXQw=="}}}, {"name": "StatefulPartitionedCall/model_8/xception/add_119/add", "op": "AddV2", "input": ["StatefulPartitionedCall/model_8/xception/block13_pool/MaxPool", "StatefulPartitionedCall/model_8/xception/batch_normalization_39/FusedBatchNormV3"], "attr": {"T": {"type": "DT_FLOAT"}}}, {"name": "StatefulPartitionedCall/model_8/xception/block14_sepconv1/separable_conv2d/depthwise", "op": "DepthwiseConv2dNative", "input": ["StatefulPartitionedCall/model_8/xception/add_119/add", "StatefulPartitionedCall/model_8/xception/block14_sepconv1/separable_conv2d/ReadVariableOp"], "attr": {"padding": {"s": "U0FNRQ=="}, "dilations": {"list": {"i": ["1", "1", "1", "1"]}}, "T": {"type": "DT_FLOAT"}, "strides": {"list": {"i": ["1", "1", "1", "1"]}}, "data_format": {"s": "TkhXQw=="}, "explicit_paddings": {"list": {}}}}, {"name": "StatefulPartitionedCall/model_8/xception/block14_sepconv1_act/Relu", "op": "_FusedConv2D", "input": ["StatefulPartitionedCall/model_8/xception/block14_sepconv1/separable_conv2d/depthwise", "StatefulPartitionedCall/model_8/xception/block14_sepconv1/separable_conv2d_weights", "StatefulPartitionedCall/model_8/xception/block14_sepconv1/separable_conv2d_bn_offset"], "device": "/device:CPU:0", "attr": {"fused_ops": {"list": {"s": ["Qmlhc0FkZA==", "UmVsdQ=="]}}, "dilations": {"list": {"i": ["1", "1", "1", "1"]}}, "T": {"type": "DT_FLOAT"}, "data_format": {"s": "TkhXQw=="}, "strides": {"list": {"i": ["1", "1", "1", "1"]}}, "explicit_paddings": {"list": {}}, "use_cudnn_on_gpu": {"b": true}, "num_args": {"i": "1"}, "epsilon": {"f": 0.0}, "padding": {"s": "VkFMSUQ="}}}, {"name": "StatefulPartitionedCall/model_8/xception/block14_sepconv2/separable_conv2d/depthwise", "op": "DepthwiseConv2dNative", "input": ["StatefulPartitionedCall/model_8/xception/block14_sepconv1_act/Relu", "StatefulPartitionedCall/model_8/xception/block14_sepconv2/separable_conv2d/ReadVariableOp"], "attr": {"dilations": {"list": {"i": ["1", "1", "1", "1"]}}, "T": {"type": "DT_FLOAT"}, "data_format": {"s": "TkhXQw=="}, "strides": {"list": {"i": ["1", "1", "1", "1"]}}, "explicit_paddings": {"list": {}}, "padding": {"s": "U0FNRQ=="}}}, {"name": "StatefulPartitionedCall/model_8/xception/block14_sepconv2_act/Relu", "op": "_FusedConv2D", "input": ["StatefulPartitionedCall/model_8/xception/block14_sepconv2/separable_conv2d/depthwise", "StatefulPartitionedCall/model_8/xception/block14_sepconv2/separable_conv2d_weights", "StatefulPartitionedCall/model_8/xception/block14_sepconv2/separable_conv2d_bn_offset"], "device": "/device:CPU:0", "attr": {"data_format": {"s": "TkhXQw=="}, "strides": {"list": {"i": ["1", "1", "1", "1"]}}, "use_cudnn_on_gpu": {"b": true}, "explicit_paddings": {"list": {}}, "num_args": {"i": "1"}, "epsilon": {"f": 0.0}, "padding": {"s": "VkFMSUQ="}, "fused_ops": {"list": {"s": ["Qmlhc0FkZA==", "UmVsdQ=="]}}, "dilations": {"list": {"i": ["1", "1", "1", "1"]}}, "T": {"type": "DT_FLOAT"}}}, {"name": "StatefulPartitionedCall/model_8/global_average_pooling2d_8/Mean", "op": "Mean", "input": ["StatefulPartitionedCall/model_8/xception/block14_sepconv2_act/Relu", "StatefulPartitionedCall/model_8/global_average_pooling2d_8/Mean/reduction_indices"], "attr": {"Tidx": {"type": "DT_INT32"}, "keep_dims": {"b": false}, "T": {"type": "DT_FLOAT"}}}, {"name": "StatefulPartitionedCall/model_8/dense_12/Relu", "op": "_FusedMatMul", "input": ["StatefulPartitionedCall/model_8/global_average_pooling2d_8/Mean", "StatefulPartitionedCall/model_8/dense_12/MatMul/ReadVariableOp", "StatefulPartitionedCall/model_8/dense_12/BiasAdd/ReadVariableOp"], "device": "/device:CPU:0", "attr": {"T": {"type": "DT_FLOAT"}, "num_args": {"i": "1"}, "epsilon": {"f": 0.0}, "fused_ops": {"list": {"s": ["Qmlhc0FkZA==", "UmVsdQ=="]}}, "transpose_a": {"b": false}, "transpose_b": {"b": false}}}, {"name": "StatefulPartitionedCall/model_8/dense_13/BiasAdd", "op": "_FusedMatMul", "input": ["StatefulPartitionedCall/model_8/dense_12/Relu", "StatefulPartitionedCall/model_8/dense_13/MatMul/ReadVariableOp", "StatefulPartitionedCall/model_8/dense_13/BiasAdd/ReadVariableOp"], "device": "/device:CPU:0", "attr": {"T": {"type": "DT_FLOAT"}, "num_args": {"i": "1"}, "epsilon": {"f": 0.0}, "fused_ops": {"list": {"s": ["Qmlhc0FkZA=="]}}, "transpose_a": {"b": false}, "transpose_b": {"b": false}}}, {"name": "Identity", "op": "Identity", "input": ["StatefulPartitionedCall/model_8/dense_13/BiasAdd"], "attr": {"T": {"type": "DT_FLOAT"}}}], "library": {}, "versions": {"producer": 561}}, "weightsManifest": [{"paths": ["group1-shard1of21.bin", "group1-shard2of21.bin", "group1-shard3of21.bin", "group1-shard4of21.bin", "group1-shard5of21.bin", "group1-shard6of21.bin", "group1-shard7of21.bin", "group1-shard8of21.bin", "group1-shard9of21.bin", "group1-shard10of21.bin", "group1-shard11of21.bin", "group1-shard12of21.bin", "group1-shard13of21.bin", "group1-shard14of21.bin", "group1-shard15of21.bin", "group1-shard16of21.bin", "group1-shard17of21.bin", "group1-shard18of21.bin", "group1-shard19of21.bin", "group1-shard20of21.bin", "group1-shard21of21.bin"], "weights": [{"name": "StatefulPartitionedCall/model_8/xception/block13_sepconv1/separable_conv2d/ReadVariableOp", "shape": [3, 3, 728, 1], "dtype": "float32"}, {"name": "StatefulPartitionedCall/model_8/xception/block13_sepconv2/separable_conv2d/ReadVariableOp", "shape": [3, 3, 728, 1], "dtype": "float32"}, {"name": "StatefulPartitionedCall/model_8/xception/block12_sepconv1/separable_conv2d/ReadVariableOp", "shape": [3, 3, 728, 1], "dtype": "float32"}, {"name": "StatefulPartitionedCall/model_8/xception/block12_sepconv2/separable_conv2d/ReadVariableOp", "shape": [3, 3, 728, 1], "dtype": "float32"}, {"name": "StatefulPartitionedCall/model_8/xception/block12_sepconv3/separable_conv2d/ReadVariableOp", "shape": [3, 3, 728, 1], "dtype": "float32"}, {"name": "StatefulPartitionedCall/model_8/xception/block11_sepconv1/separable_conv2d/ReadVariableOp", "shape": [3, 3, 728, 1], "dtype": "float32"}, {"name": "StatefulPartitionedCall/model_8/xception/block11_sepconv2/separable_conv2d/ReadVariableOp", "shape": [3, 3, 728, 1], "dtype": "float32"}, {"name": "StatefulPartitionedCall/model_8/xception/block11_sepconv3/separable_conv2d/ReadVariableOp", "shape": [3, 3, 728, 1], "dtype": "float32"}, {"name": "StatefulPartitionedCall/model_8/xception/block10_sepconv1/separable_conv2d/ReadVariableOp", "shape": [3, 3, 728, 1], "dtype": "float32"}, {"name": "StatefulPartitionedCall/model_8/xception/block10_sepconv2/separable_conv2d/ReadVariableOp", "shape": [3, 3, 728, 1], "dtype": "float32"}, {"name": "StatefulPartitionedCall/model_8/xception/block10_sepconv3/separable_conv2d/ReadVariableOp", "shape": [3, 3, 728, 1], "dtype": "float32"}, {"name": "StatefulPartitionedCall/model_8/xception/block9_sepconv1/separable_conv2d/ReadVariableOp", "shape": [3, 3, 728, 1], "dtype": "float32"}, {"name": "StatefulPartitionedCall/model_8/xception/block9_sepconv2/separable_conv2d/ReadVariableOp", "shape": [3, 3, 728, 1], "dtype": "float32"}, {"name": "StatefulPartitionedCall/model_8/xception/block9_sepconv3/separable_conv2d/ReadVariableOp", "shape": [3, 3, 728, 1], "dtype": "float32"}, {"name": "StatefulPartitionedCall/model_8/xception/block8_sepconv1/separable_conv2d/ReadVariableOp", "shape": [3, 3, 728, 1], "dtype": "float32"}, {"name": "StatefulPartitionedCall/model_8/xception/block8_sepconv2/separable_conv2d/ReadVariableOp", "shape": [3, 3, 728, 1], "dtype": "float32"}, {"name": "StatefulPartitionedCall/model_8/xception/block8_sepconv3/separable_conv2d/ReadVariableOp", "shape": [3, 3, 728, 1], "dtype": "float32"}, {"name": "StatefulPartitionedCall/model_8/xception/block7_sepconv1/separable_conv2d/ReadVariableOp", "shape": [3, 3, 728, 1], "dtype": "float32"}, {"name": "StatefulPartitionedCall/model_8/xception/block7_sepconv2/separable_conv2d/ReadVariableOp", "shape": [3, 3, 728, 1], "dtype": "float32"}, {"name": "StatefulPartitionedCall/model_8/xception/block7_sepconv3/separable_conv2d/ReadVariableOp", "shape": [3, 3, 728, 1], "dtype": "float32"}, {"name": "StatefulPartitionedCall/model_8/xception/block6_sepconv1/separable_conv2d/ReadVariableOp", "shape": [3, 3, 728, 1], "dtype": "float32"}, {"name": "StatefulPartitionedCall/model_8/xception/block6_sepconv2/separable_conv2d/ReadVariableOp", "shape": [3, 3, 728, 1], "dtype": "float32"}, {"name": "StatefulPartitionedCall/model_8/xception/block6_sepconv3/separable_conv2d/ReadVariableOp", "shape": [3, 3, 728, 1], "dtype": "float32"}, {"name": "StatefulPartitionedCall/model_8/xception/block5_sepconv1/separable_conv2d/ReadVariableOp", "shape": [3, 3, 728, 1], "dtype": "float32"}, {"name": "StatefulPartitionedCall/model_8/xception/block5_sepconv2/separable_conv2d/ReadVariableOp", "shape": [3, 3, 728, 1], "dtype": "float32"}, {"name": "StatefulPartitionedCall/model_8/xception/block5_sepconv3/separable_conv2d/ReadVariableOp", "shape": [3, 3, 728, 1], "dtype": "float32"}, {"name": "StatefulPartitionedCall/model_8/xception/block4_sepconv1/separable_conv2d/ReadVariableOp", "shape": [3, 3, 256, 1], "dtype": "float32"}, {"name": "StatefulPartitionedCall/model_8/xception/block4_sepconv2/separable_conv2d/ReadVariableOp", "shape": [3, 3, 728, 1], "dtype": "float32"}, {"name": "StatefulPartitionedCall/model_8/xception/block3_sepconv1/separable_conv2d/ReadVariableOp", "shape": [3, 3, 128, 1], "dtype": "float32"}, {"name": "StatefulPartitionedCall/model_8/xception/block3_sepconv2/separable_conv2d/ReadVariableOp", "shape": [3, 3, 256, 1], "dtype": "float32"}, {"name": "StatefulPartitionedCall/model_8/xception/block2_sepconv1/separable_conv2d/ReadVariableOp", "shape": [3, 3, 64, 1], "dtype": "float32"}, {"name": "StatefulPartitionedCall/model_8/xception/block2_sepconv2/separable_conv2d/ReadVariableOp", "shape": [3, 3, 128, 1], "dtype": "float32"}, {"name": "StatefulPartitionedCall/model_8/xception/block14_sepconv1/separable_conv2d/ReadVariableOp", "shape": [3, 3, 1024, 1], "dtype": "float32"}, {"name": "StatefulPartitionedCall/model_8/xception/block14_sepconv2/separable_conv2d/ReadVariableOp", "shape": [3, 3, 1536, 1], "dtype": "float32"}, {"name": "StatefulPartitionedCall/model_8/global_average_pooling2d_8/Mean/reduction_indices", "shape": [2], "dtype": "int32"}, {"name": "StatefulPartitionedCall/model_8/dense_12/MatMul/ReadVariableOp", "shape": [2048, 100], "dtype": "float32"}, {"name": "StatefulPartitionedCall/model_8/dense_12/BiasAdd/ReadVariableOp", "shape": [100], "dtype": "float32"}, {"name": "StatefulPartitionedCall/model_8/dense_13/MatMul/ReadVariableOp", "shape": [100, 10], "dtype": "float32"}, {"name": "StatefulPartitionedCall/model_8/dense_13/BiasAdd/ReadVariableOp", "shape": [10], "dtype": "float32"}, {"name": "StatefulPartitionedCall/model_8/xception/block1_conv1/Conv2D_weights", "shape": [3, 3, 3, 32], "dtype": "float32"}, {"name": "StatefulPartitionedCall/model_8/xception/block11_sepconv2/separable_conv2d_weights", "shape": [1, 1, 728, 728], "dtype": "float32"}, {"name": "StatefulPartitionedCall/model_8/xception/block1_conv1/Conv2D_bn_offset", "shape": [32], "dtype": "float32"}, {"name": "StatefulPartitionedCall/model_8/xception/block1_conv2/Conv2D_weights", "shape": [3, 3, 32, 64], "dtype": "float32"}, {"name": "StatefulPartitionedCall/model_8/xception/block11_sepconv2/separable_conv2d_bn_offset", "shape": [728], "dtype": "float32"}, {"name": "StatefulPartitionedCall/model_8/xception/block1_conv2/Conv2D_bn_offset", "shape": [64], "dtype": "float32"}, {"name": "StatefulPartitionedCall/model_8/xception/block14_sepconv1/separable_conv2d_weights", "shape": [1, 1, 1024, 1536], "dtype": "float32"}, {"name": "StatefulPartitionedCall/model_8/xception/conv2d_36/Conv2D_weights", "shape": [1, 1, 64, 128], "dtype": "float32"}, {"name": "StatefulPartitionedCall/model_8/xception/conv2d_36/Conv2D_bn_offset", "shape": [128], "dtype": "float32"}, {"name": "StatefulPartitionedCall/model_8/xception/block2_sepconv1/separable_conv2d_weights", "shape": [1, 1, 64, 128], "dtype": "float32"}, {"name": "StatefulPartitionedCall/model_8/xception/block2_sepconv1/separable_conv2d_bn_offset", "shape": [128], "dtype": "float32"}, {"name": "StatefulPartitionedCall/model_8/xception/block11_sepconv3/separable_conv2d_weights", "shape": [1, 1, 728, 728], "dtype": "float32"}, {"name": "StatefulPartitionedCall/model_8/xception/block2_sepconv2/separable_conv2d_weights", "shape": [1, 1, 128, 128], "dtype": "float32"}, {"name": "StatefulPartitionedCall/model_8/xception/block2_sepconv2/separable_conv2d_bn_offset", "shape": [128], "dtype": "float32"}, {"name": "StatefulPartitionedCall/model_8/xception/conv2d_37/Conv2D_weights", "shape": [1, 1, 128, 256], "dtype": "float32"}, {"name": "StatefulPartitionedCall/model_8/xception/block11_sepconv3/separable_conv2d_bn_offset", "shape": [728], "dtype": "float32"}, {"name": "StatefulPartitionedCall/model_8/xception/conv2d_37/Conv2D_bn_offset", "shape": [256], "dtype": "float32"}, {"name": "StatefulPartitionedCall/model_8/xception/block3_sepconv1/separable_conv2d_weights", "shape": [1, 1, 128, 256], "dtype": "float32"}, {"name": "StatefulPartitionedCall/model_8/xception/block3_sepconv1/separable_conv2d_bn_offset", "shape": [256], "dtype": "float32"}, {"name": "StatefulPartitionedCall/model_8/xception/block3_sepconv2/separable_conv2d_weights", "shape": [1, 1, 256, 256], "dtype": "float32"}, {"name": "StatefulPartitionedCall/model_8/xception/block3_sepconv2/separable_conv2d_bn_offset", "shape": [256], "dtype": "float32"}, {"name": "StatefulPartitionedCall/model_8/xception/conv2d_38/Conv2D_weights", "shape": [1, 1, 256, 728], "dtype": "float32"}, {"name": "StatefulPartitionedCall/model_8/xception/conv2d_38/Conv2D_bn_offset", "shape": [728], "dtype": "float32"}, {"name": "StatefulPartitionedCall/model_8/xception/block4_sepconv1/separable_conv2d_weights", "shape": [1, 1, 256, 728], "dtype": "float32"}, {"name": "StatefulPartitionedCall/model_8/xception/block12_sepconv1/separable_conv2d_weights", "shape": [1, 1, 728, 728], "dtype": "float32"}, {"name": "StatefulPartitionedCall/model_8/xception/block4_sepconv1/separable_conv2d_bn_offset", "shape": [728], "dtype": "float32"}, {"name": "StatefulPartitionedCall/model_8/xception/block14_sepconv1/separable_conv2d_bn_offset", "shape": [1536], "dtype": "float32"}, {"name": "StatefulPartitionedCall/model_8/xception/block4_sepconv2/separable_conv2d_weights", "shape": [1, 1, 728, 728], "dtype": "float32"}, {"name": "StatefulPartitionedCall/model_8/xception/block12_sepconv1/separable_conv2d_bn_offset", "shape": [728], "dtype": "float32"}, {"name": "StatefulPartitionedCall/model_8/xception/block4_sepconv2/separable_conv2d_bn_offset", "shape": [728], "dtype": "float32"}, {"name": "StatefulPartitionedCall/model_8/xception/block5_sepconv1/separable_conv2d_weights", "shape": [1, 1, 728, 728], "dtype": "float32"}, {"name": "StatefulPartitionedCall/model_8/xception/block5_sepconv1/separable_conv2d_bn_offset", "shape": [728], "dtype": "float32"}, {"name": "StatefulPartitionedCall/model_8/xception/block5_sepconv2/separable_conv2d_weights", "shape": [1, 1, 728, 728], "dtype": "float32"}, {"name": "StatefulPartitionedCall/model_8/xception/block5_sepconv2/separable_conv2d_bn_offset", "shape": [728], "dtype": "float32"}, {"name": "StatefulPartitionedCall/model_8/xception/block12_sepconv2/separable_conv2d_weights", "shape": [1, 1, 728, 728], "dtype": "float32"}, {"name": "StatefulPartitionedCall/model_8/xception/block5_sepconv3/separable_conv2d_weights", "shape": [1, 1, 728, 728], "dtype": "float32"}, {"name": "StatefulPartitionedCall/model_8/xception/block5_sepconv3/separable_conv2d_bn_offset", "shape": [728], "dtype": "float32"}, {"name": "StatefulPartitionedCall/model_8/xception/block6_sepconv1/separable_conv2d_weights", "shape": [1, 1, 728, 728], "dtype": "float32"}, {"name": "StatefulPartitionedCall/model_8/xception/block12_sepconv2/separable_conv2d_bn_offset", "shape": [728], "dtype": "float32"}, {"name": "StatefulPartitionedCall/model_8/xception/block6_sepconv1/separable_conv2d_bn_offset", "shape": [728], "dtype": "float32"}, {"name": "StatefulPartitionedCall/model_8/xception/block6_sepconv2/separable_conv2d_weights", "shape": [1, 1, 728, 728], "dtype": "float32"}, {"name": "StatefulPartitionedCall/model_8/xception/block6_sepconv2/separable_conv2d_bn_offset", "shape": [728], "dtype": "float32"}, {"name": "StatefulPartitionedCall/model_8/xception/block6_sepconv3/separable_conv2d_weights", "shape": [1, 1, 728, 728], "dtype": "float32"}, {"name": "StatefulPartitionedCall/model_8/xception/block12_sepconv3/separable_conv2d_weights", "shape": [1, 1, 728, 728], "dtype": "float32"}, {"name": "StatefulPartitionedCall/model_8/xception/block6_sepconv3/separable_conv2d_bn_offset", "shape": [728], "dtype": "float32"}, {"name": "StatefulPartitionedCall/model_8/xception/block7_sepconv1/separable_conv2d_weights", "shape": [1, 1, 728, 728], "dtype": "float32"}, {"name": "StatefulPartitionedCall/model_8/xception/block14_sepconv2/separable_conv2d_weights", "shape": [1, 1, 1536, 2048], "dtype": "float32"}, {"name": "StatefulPartitionedCall/model_8/xception/block7_sepconv1/separable_conv2d_bn_offset", "shape": [728], "dtype": "float32"}, {"name": "StatefulPartitionedCall/model_8/xception/block12_sepconv3/separable_conv2d_bn_offset", "shape": [728], "dtype": "float32"}, {"name": "StatefulPartitionedCall/model_8/xception/block7_sepconv2/separable_conv2d_weights", "shape": [1, 1, 728, 728], "dtype": "float32"}, {"name": "StatefulPartitionedCall/model_8/xception/block7_sepconv2/separable_conv2d_bn_offset", "shape": [728], "dtype": "float32"}, {"name": "StatefulPartitionedCall/model_8/xception/block7_sepconv3/separable_conv2d_weights", "shape": [1, 1, 728, 728], "dtype": "float32"}, {"name": "StatefulPartitionedCall/model_8/xception/block7_sepconv3/separable_conv2d_bn_offset", "shape": [728], "dtype": "float32"}, {"name": "StatefulPartitionedCall/model_8/xception/block8_sepconv1/separable_conv2d_weights", "shape": [1, 1, 728, 728], "dtype": "float32"}, {"name": "StatefulPartitionedCall/model_8/xception/block8_sepconv1/separable_conv2d_bn_offset", "shape": [728], "dtype": "float32"}, {"name": "StatefulPartitionedCall/model_8/xception/conv2d_39/Conv2D_weights", "shape": [1, 1, 728, 1024], "dtype": "float32"}, {"name": "StatefulPartitionedCall/model_8/xception/block8_sepconv2/separable_conv2d_weights", "shape": [1, 1, 728, 728], "dtype": "float32"}, {"name": "StatefulPartitionedCall/model_8/xception/block8_sepconv2/separable_conv2d_bn_offset", "shape": [728], "dtype": "float32"}, {"name": "StatefulPartitionedCall/model_8/xception/conv2d_39/Conv2D_bn_offset", "shape": [1024], "dtype": "float32"}, {"name": "StatefulPartitionedCall/model_8/xception/block8_sepconv3/separable_conv2d_weights", "shape": [1, 1, 728, 728], "dtype": "float32"}, {"name": "StatefulPartitionedCall/model_8/xception/block8_sepconv3/separable_conv2d_bn_offset", "shape": [728], "dtype": "float32"}, {"name": "StatefulPartitionedCall/model_8/xception/block9_sepconv1/separable_conv2d_weights", "shape": [1, 1, 728, 728], "dtype": "float32"}, {"name": "StatefulPartitionedCall/model_8/xception/block13_sepconv1/separable_conv2d_weights", "shape": [1, 1, 728, 728], "dtype": "float32"}, {"name": "StatefulPartitionedCall/model_8/xception/block9_sepconv1/separable_conv2d_bn_offset", "shape": [728], "dtype": "float32"}, {"name": "StatefulPartitionedCall/model_8/xception/block14_sepconv2/separable_conv2d_bn_offset", "shape": [2048], "dtype": "float32"}, {"name": "StatefulPartitionedCall/model_8/xception/block9_sepconv2/separable_conv2d_weights", "shape": [1, 1, 728, 728], "dtype": "float32"}, {"name": "StatefulPartitionedCall/model_8/xception/block13_sepconv1/separable_conv2d_bn_offset", "shape": [728], "dtype": "float32"}, {"name": "StatefulPartitionedCall/model_8/xception/block9_sepconv2/separable_conv2d_bn_offset", "shape": [728], "dtype": "float32"}, {"name": "StatefulPartitionedCall/model_8/xception/block9_sepconv3/separable_conv2d_weights", "shape": [1, 1, 728, 728], "dtype": "float32"}, {"name": "StatefulPartitionedCall/model_8/xception/block9_sepconv3/separable_conv2d_bn_offset", "shape": [728], "dtype": "float32"}, {"name": "StatefulPartitionedCall/model_8/xception/block10_sepconv1/separable_conv2d_weights", "shape": [1, 1, 728, 728], "dtype": "float32"}, {"name": "StatefulPartitionedCall/model_8/xception/block10_sepconv1/separable_conv2d_bn_offset", "shape": [728], "dtype": "float32"}, {"name": "StatefulPartitionedCall/model_8/xception/block13_sepconv2/separable_conv2d_weights", "shape": [1, 1, 728, 1024], "dtype": "float32"}, {"name": "StatefulPartitionedCall/model_8/xception/block10_sepconv2/separable_conv2d_weights", "shape": [1, 1, 728, 728], "dtype": "float32"}, {"name": "StatefulPartitionedCall/model_8/xception/block10_sepconv2/separable_conv2d_bn_offset", "shape": [728], "dtype": "float32"}, {"name": "StatefulPartitionedCall/model_8/xception/block13_sepconv2/separable_conv2d_bn_offset", "shape": [1024], "dtype": "float32"}, {"name": "StatefulPartitionedCall/model_8/xception/block10_sepconv3/separable_conv2d_weights", "shape": [1, 1, 728, 728], "dtype": "float32"}, {"name": "StatefulPartitionedCall/model_8/xception/block10_sepconv3/separable_conv2d_bn_offset", "shape": [728], "dtype": "float32"}, {"name": "StatefulPartitionedCall/model_8/xception/block11_sepconv1/separable_conv2d_weights", "shape": [1, 1, 728, 728], "dtype": "float32"}, {"name": "StatefulPartitionedCall/model_8/xception/block11_sepconv1/separable_conv2d_bn_offset", "shape": [728], "dtype": "float32"}]}]}